predictor/models/cost_predictor.pth (torch, 13582 bytes, 6 tensors)

model.0.weight f4 [64, 1]
-0.7564763 0.4305408 -0.20649254 -0.055814125 0.50651413 -0.5510595 -0.33718905 -1.266651
-0.22450936 -0.2580344 0.007142556 -0.9370383 -0.29257405 0.8874611 -0.59273577 -0.19260538
0.15956232 -1.2208273 0.39396563 -0.6936679 -0.6523765 -0.3060354 0.3890066 -0.292508
-0.65770614 0.306303 -1.0956523 -0.76533985 -1.3343238 -0.4090676 0.069508694 -0.574968
-0.70783114 -0.6346406 0.12018926 -0.7449385 0.1821698 -1.3457482 0.12514794 0.90640616
-0.88542163 -0.36291328 -0.13606346 1.0097687 -1.0780486 -1.5021496 -0.23313904 -1.0479976
0.43432844 0.6134327 -0.96468174 -0.05528396 -0.34906518 0.5068877 0.24497569 0.4055401
0.47400677 -0.7573595 0.27668214 -0.97470224 -0.5684203 -0.48474383 -0.7803767 -0.9822364
00000000: 6ea8 41bf d86f dc3e c872 53be 5a9d 64bd
00000010: e9aa 013f 3c12 0dbf 0ba4 acbe 9f21 a2bf
00000020: c8e5 65be 161d 84be 1a0c ea3b bee1 6fbf
00000030: 44cc 95be a730 633f 88bd 17bf 583a 45be
00000040: 4e64 233e 1244 9cbf ddb5 c93e 3894 31bf
00000050: 2502 27bf acb0 9cbe e02b c73e 9cc3 95be
00000060: 6e5f 28bf bfd3 9c3e 563e 8cbf 50ed 43bf
00000070: 1fcb aabf 4f71 d1be 935a 8e3d 1a31 13bf
00000080: 6c34 35bf ce77 22bf c925 f63d 4ab4 3ebf
00000090: b88a 3a3e 7a41 acbf c826 003e 3c0a 683f
000000a0: feaa 62bf c5cf b9be 3854 0bbe 1a40 813f
000000b0: 7ffd 89bf 7046 c0bf 00bc 6ebe c924 86bf
000000c0: 4c60 de3e ed09 1d3f 62f5 76bf 6f71 62bd
000000d0: acb8 b2be 64c3 013f e8da 7a3e f4a2 cf3e
000000e0: 04b1 f23e 50e2 41bf 48a9 8d3e 1686 79bf
000000f0: fe83 11bf 5830 f8be c4c6 47bf d873 7bbf

model.0.bias f4 [64]
0.65717673 -0.2089201 -0.3626933 0.18543062 -0.37883335 -0.76842666 0.3292669 0.618519
-0.9706491 0.3079353 0.107898094 -0.8765706 -0.6261635 -0.76374584 0.40350956 -0.6314579
-0.005189155 0.3195353 -0.0826089 0.22030011 0.17467864 -0.7307401 -0.75467086 -0.5852337
-0.9289924 -0.2569919 0.37694433 0.565258 0.46197543 0.29727724 -0.15115218 0.38991573
-0.13374698 -0.9001727 0.3098852 -0.89758277 -0.3320266 0.45432207 -0.7922162 -0.9942132
-0.05874145 0.38988912 -0.12560117 -0.91335446 0.5070459 0.5110683 -0.6892464 0.22984698
-0.96966076 -0.34677893 -0.86769485 0.30955607 -0.41067064 -0.4478038 -0.8645754 -0.78576493
-0.8978425 -0.13165224 -0.24685481 0.33901966 0.42466587 -0.10665035 0.5776448 -0.42915618
00000000: bc3c 283f 27ef 55be f0b2 b9be 86e1 3d3e
00000010: 72f6 c1be 9cb7 44bf ac95 a83e 4357 1e3f
00000020: 767c 78bf b2a9 9d3e adf9 dc3d ee66 60bf
00000030: 404c 20bf d984 43bf ce98 ce3e 3aa7 21bf
00000040: ca09 aabb 219a a33e db2e a9bd 5a96 613e
00000050: f5de 323e c811 3bbf 1c32 41bf e0d1 15bf
00000060: 72d2 6dbf 7194 83be d9fe c03e c0b4 103f
00000070: 0b88 ec3e b934 983e a3c7 1abe 09a3 c73e
00000080: f8f4 08be b871 66bf 46a9 9e3e fcc7 65bf
00000090: 64ff a9be e79c e83e aece 4abf c284 7ebf
000000a0: e09a 70bd 8c9f c73e 989d 00be 99d1 69bf
000000b0: c3cd 013f 5fd5 023f 7472 30bf 025d 6b3e
000000c0: b03b 78bf 028d b1be 4021 5ebf 227e 9e3e
000000d0: 6c43 d2be 8a46 e5be d054 5dbf e427 49bf
000000e0: 02d9 65bf d8cf 06be 82c7 7cbe fc93 ad3e
000000f0: ce6d d93e 806b dabd 88e0 133f 5cba dbbe

model.3.weight f4 [32, 64]
-0.04947616 0.063252494 0.12232064 0.036098428 0.054385103 -0.027263656 0.0042388663 -0.097310804
0.011989832 -0.047587775 -0.06566568 0.024812758 -0.08750749 0.41956022 -0.044646066 0.073449284
-0.012978739 -0.46941265 -0.030056497 -0.09274737 -0.26496407 -0.036014378 0.040889695 0.027571216
0.028177127 -0.036864705 -1.4682214 -0.00860141 -0.6606283 -0.09943946 0.119722575 0.0223866
-0.03438197 -0.019862637 0.014368901 -0.05327855 0.08209719 -0.6683153 0.034203574 0.058990136
-0.03291118 -0.042207267 -0.09502825 0.37398398 -0.17722891 -0.30883154 0.017909124 -0.055827953
-0.028741255 -0.025662906 -0.069645464 0.0017922416 0.06005931 0.6830131 0.055450916 0.06445962
0.076465696 0.023103341 0.13946344 -0.23701257 -0.05893644 0.066154644 -0.025729511 -0.109482005
-0.18991786 0.011449333 -0.0066156685 -0.13488768 -0.18213767 0.078848034 -0.15747829 -0.15409231
-0.02821657 -0.11753043 -0.06386137 -0.056504503 0.08927195 -0.12343658 -0.12972638 -0.04405865
-0.041233666 -0.1198853 -0.12903665 0.03445581 0.06861687 -0.121811435 -0.09743102 0.1105001
-0.06227438 0.023603247 0.07841316 -0.17714354 0.028891511 -0.0010058162 -0.13633084 0.0049706795
-0.01706557 -0.0041784495 -0.023229059 0.033638388 0.11685884 -0.1808079 -0.11868779 -0.12189467
-0.026926264 -0.0038341254 -0.07143715 -0.17330435 -0.08839403 0.06069769 -0.050039455 -0.12527938
-0.101947606 -0.055305917 0.102101296 0.024644034 0.085988685 -0.07758935 0.00055226684 -0.019696265
-0.11919227 -0.04169756 0.0132253 -0.06624949 -0.05280715 0.11826432 -0.1836585 0.08508575
-0.05816553 0.04296442 -0.008914039 -0.002286701 -0.014184926 0.039757773 -0.10436042 -0.032445554
1.3157725e-05 0.021176139 0.033645447 0.06731641 0.06924088 0.50801194 -0.010331037 0.06795342
-0.020533837 -0.4634238 -0.009771075 -0.14664723 -0.05131668 0.120557025 0.08763738 0.09850584
-0.048893318 0.14962235 -1.4042817 -0.043755315 -0.70438325 -0.0567088 0.095050134 -0.111264735
0.021958381 0.060828954 0.04151741 -0.08037688 -0.019414231 -0.7063677 0.117581606 0.08440697
0.09278627 -0.018731453 0.094605625 0.5505778 -0.04438813 -0.33498776 0.10123825 -0.25072813
0.083407 0.012358416 -0.014272541 0.0128086945 0.06851426 0.69191575 0.060509667 -0.029104933
0.023175642 -0.0011354983 0.17842925 -0.3585749 -0.003969542 0.09334448 -0.03682138 -0.001601398
-0.3978129 0.009534739 -0.05086872 0.0056708544 0.19258963 -0.091615826 -0.18765089 -0.16634023
-0.1181588 -0.087736025 -0.012603324 -0.080035284 0.016810223 0.2774414 -0.110267356 0.005313322
0.092494935 -0.043181296 0.05803388 -0.08650711 -0.061193943 0.013257146 -0.03864664 -0.028417408
0.08451429 0.19691943 -0.14293353 -0.3850078 -0.15570033 -0.3710851 0.027090322 -0.21182354
-0.08694716 0.06705037 0.046573754 0.08833468 -0.032047376 -0.23649724 0.116786376 0.02280578
0.006432265 -0.021424927 -0.04624425 0.14028023 -0.045047216 -0.03836911 -0.025050506 0.0116479285
0.0822334 0.08389553 0.08227493 0.016863111 -0.061619714 0.29891005 -0.025304496 0.109762296
0.078251064 0.01985623 0.016408317 -0.059525732 -0.29535532 0.11692926 -0.3041617 0.051662162
00000000: 84a7 4abd 868a 813d 3e83 fa3d f2db 133d
00000010: eac2 5e3d 0858 dfbc 30e6 8a3b e34a c7bd
00000020: 0071 443c 66eb 42bd ba7b 86bd 2044 cb3c
00000030: 2037 b3bd 99d0 d63e cbde 36bd 946c 963d
00000040: c7a4 54bc db56 f0be 0b39 f6bc 55f2 bdbd
00000050: 5fa9 87be d083 13bd f47b 273d 08dd e13c
00000060: b8d3 e63c 72ff 16bd aeee bbbf eeec 0cbc
00000070: f01e 29bf eaa6 cbbd 1c31 f53d 1a64 b73c
00000080: 1cd4 0cbd f8b6 a2bc 8a6b 6b3c 9c3a 5abd
00000090: 9222 a83d b616 2bbf 0c19 0c3d a49f 713d
000000a0: e0cd 06bd 87e1 2cbd 2c9e c2bd d47a bf3e
000000b0: 7f7b 35be 2b1f 9ebe 28b6 923c daab 64bd
000000c0: c872 ebbc 043b d2bc 48a2 8ebd a6e9 ea3a
000000d0: c000 763d f2d9 2e3f 8020 633d 6803 843d
000000e0: 0c9a 9c3d 3843 bd3c 81cf 0e3e 6cb3 72be
000000f0: 5667 71bd 167c 873d b2c6 d2bc 1a38 e0bd
00000100: d479 42be fc95 3b3c 40c8 d8bb ff1f 0abe
00000110: 4c82 3abe 147b a13d fd41 21be 60ca 1dbe
00000120: 7026 e7bc cbb3 f0bd c0c9 82bd 4471 67bd
00000130: 36d4 b63d 51cc fcbd fed6 04be d876 34bd
00000140: a2e4 28bd 6d86 f5bd 2f22 04be 8921 0d3d
00000150: 0087 8c3d 4678 f9bd ea89 c7bd e04d e23d
00000160: 6c13 7fbd 995b c13c 1497 a03d 1e65 35be
00000170: e4ad ec3c 97d5 83ba 509a 0bbe 15e1 a23b
00000180: 18cd 8bbc 60eb 88bb de4a bebc 68c8 093d
00000190: b053 ef3d b525 39be 9612 f3bd eaa3 f9bd
000001a0: 7894 dcbc f345 7bbb a44d 92bd b276 31be
000001b0: ee07 b5bd 249e 783d 2cf6 4cbd 3d49 00be
000001c0: e8c9 d0bd 7588 62bd 7c1a d13d 49e2 c93c
000001d0: d61a b03d 2ae7 9ebd 00c6 103a 105a a1bc
000001e0: 141b f4bd 10cb 2abd eeae 583c d0ad 87bd
000001f0: 4f4c 58bd 9034 f23d f910 3cbe 7041 ae3d
00000200: fb3e 6ebd 76fb 2f3d 300c 12bc 7adc 15bb
00000210: e467 68bc 0cd9 223d eaba d5bd a1e5 04bd
00000220: 00c0 5c37 9579 ad3c cfcf 093d 30dd 893d
00000230: 2ace 8d3d 120d 023f 8343 29bc 2a2b 8b3d
00000240: 9436 a8bc e245 edbe dc16 20bc b12a 16be
00000250: 7031 52bd 9ae6 f63d 3a7b b33d 6ebd c93d
00000260: 5c44 48bd 9a36 193e 81bf b3bf c638 33bd
00000270: 7652 34bf 7d47 68bd a5a9 c23d c4de e3bd
00000280: 10e2 b33c c827 793d 290e 2a3d a29c a4bd
00000290: 980a 9fbc 83d4 34bf a0ce f03d 90dd ac3d
000002a0: ba06 be3d b472 99bc 98c0 c13d abf2 0c3f
000002b0: 54d0 35bd 8483 abbe 0056 cf3d 705f 80be
000002c0: 4ad1 aa3d f47a 4a3c 60d7 69bc 8fdb 513c
000002d0: 3451 8c3d 6421 313f fcd8 773d 786d eebc
000002e0: d8da bd3c 00d5 94ba 28b6 363e 2197 b7be
000002f0: ef12 82bb 642b bf3d 04d2 16bd 00e6 d1ba
00000300: 22ae cbbe 9837 1c3c b85b 50bd 93d2 b93b
00000310: 3736 453e 14a1 bbbd 8e27 40be 1855 2abe
00000320: 3efd f1bd f2ae b3bd 2c7e 4ebc 8ae9 a3bd
00000330: 98b5 893c cd0c 8e3e dad3 e1bd 601b ae3b
00000340: fc6d bd3d dfde 30bd efb4 6d3d a42a b1bd
00000350: 80a6 7abd 8034 593c f04b 1ebd a0cb e8bc
00000360: d415 ad3d 3fa5 493e 2b5d 12be be1f c5be
00000370: e86f 1fbe defe bdbe 86ec dd3c 45e8 58be
00000380: 5a11 b2bd b451 893d 1fc4 3e3d d0e8 b43d
00000390: 1c44 03bd 552c 72be b22d ef3d 30d3 ba3c
000003a0: c0c5 d23b 5483 afbc 9c6a 3dbd 9fa5 0f3e
000003b0: 6e83 38bd ee28 1dbd b836 cdbc f4d6 3e3c
000003c0: fc69 a83d 6bd1 ab3d c27f a83d 8224 8a3c
000003d0: f464 7cbd bd0a 993e 604b cfbc 0ecb e03d
000003e0: 1842 a03d 88a9 a23c bc6a 863c 41d1 73bd
000003f0: d038 97be 9c78 ef3d 15bb 9bbe b49b 533d

model.3.bias f4 [32]
0.24075007 -0.009358076 0.2256228 0.07347667 0.1958381 0.22644004 -0.0924777 0.2438332
0.17583808 -0.029433645 -0.007604088 -0.10691201 0.2556589 0.020374008 0.19798517 0.095032215
-0.23150635 -0.011475502 -0.07576261 -0.19481759 0.27078962 0.19228214 -0.14364311 0.3132921
-0.10022962 0.01810647 -0.10197573 0.19485384 0.20229097 -0.054172132 0.050520085 -0.101928934
00000000: 3087 763e 9e52 19bc aa09 673e f07a 963d
00000010: c889 483e e6df 673e f364 bdbd 69af 793e
00000020: e60e 343e d41e f1bc b72b f9bb aff4 dabd
00000030: b9e5 823e 64e7 a63c a0bc 4a3e 40a0 c23d
00000040: 0010 6dbe be03 3cbc 6d29 9bbd 437e 47be
00000050: f0a4 8a3e 9ce5 443e 2e17 13be d267 a03e
00000060: 3045 cdbd 0554 943c a7d8 d0bd c487 473e
00000070: 5d25 4f3e 99e3 5dbd 26ee 4e3d 1ec0 d0bd

model.6.weight f4 [3, 32]
0.121973895 -0.030636048 0.13760337 0.18257245 0.12798168 0.065541744 0.15827547 0.16143306
0.08859818 -0.07749428 0.18693075 0.043835975 0.10642224 0.63032454 0.15972324 0.11854753
-0.06504323 0.22039998 -0.048610855 0.18441276 0.09944489 0.094031066 -0.093680054 0.0887656
-0.062126413 0.16875821 0.09494949 0.14522833 0.1343974 0.026656725 0.041338105 0.06942517
0.09797662 0.006592041 0.08681961 0.18193191 0.09560839 0.120136224 0.068550736 0.06701069
0.06069257 -0.060311142 -0.0016756709 0.092897214 0.11103421 -0.21912463 0.42819196 0.059221618
-0.15149698 -0.096610755 0.062228795 0.054119676 0.10457605 0.08680206 0.049854808 0.10314572
-0.15068635 -0.0078555755 -0.10479758 0.0998834 0.08076872 -0.07424093 0.22267212 0.10873423
0.15389091 -0.08640969 0.1764468 0.1761454 0.1206746 0.120331 -0.065154955 0.12615803
0.13747941 0.15603884 -0.035369296 0.101281084 0.18138456 0.13359618 0.09106317 0.16596511
-0.03853318 0.051953718 0.019340621 -0.05824287 0.09703003 0.1412896 -0.12088762 0.13030495
-0.03336073 0.099347055 0.21510382 0.13331605 0.14497446 -0.056082185 -0.07630244 0.14630026
00000000: 73cd f93d 73f8 fabc e6e7 0c3e 46f4 3a3e
00000010: a10d 033e c03a 863d f712 223e b54e 253e
00000020: f672 b53d 52b5 9ebd c66a 3f3e 5a8d 333d
00000030: e7f3 d93d f35c 213f 7d8e 233e 0cc9 f23d
00000040: 6335 85bd 88b0 613e 2d1c 47bd b3d6 3c3e
00000050: c3a9 cb3d 5c93 c03d 54db bfbd bdca b53d
00000060: 4478 7ebd f4ce 2c3e e174 c23d bcb6 143e
00000070: 799f 093e 345f da3c 2552 293d c92e 8e3d
00000080: f7a7 c83d 0c02 d83b 7bce b13d 5c4c 3a3e
00000090: 55ce c33d fb09 f63d 5464 8c3d e73c 893d
000000a0: c698 783d d108 77bd 2fa2 dbba e540 be3d
000000b0: e765 e33d 3562 60be fa3b db3e 5e92 723d
000000c0: 0622 1bbe dcdb c5bd 9fe3 7e3d 98ac 5d3d
000000d0: f82b d63d 47c5 b13d 8e34 4c3d 103e d33d
000000e0: 864d 1abe acb4 00bc 1da0 d6bd ab8f cc3d
000000f0: 126a a53d a10b 98bd 2904 643e 0db0 de3d
00000100: 9495 1d3e 90f7 b0bd 78ae 343e 765f 343e
00000110: 3f24 f73d 1970 f63d f66f 85bd 922f 013e
00000120: 67c7 0c3e a5c8 1f3e 65df 10bd 756c cf3d
00000130: e0bc 393e 70cd 083e 547f ba3d c2f2 293e
00000140: f8d4 1dbd 6ccd 543d 3970 9e3c 1390 6ebd
00000150: aeb7 c63d 39ae 103e ee93 f7bd a96e 053e
00000160: 43a5 08bd 7876 cb3d 2d44 5c3e 0184 083e
00000170: 2f74 143e 6fb6 65bd 7444 9cbd bccf 153e

model.6.bias f4 [3]
0.17713486 0.40086585 0.08523876
00000000: d762 353e 4a3e cd3e a991 ae3d
