predictor/models/simple_cost_predictor.pth (torch, 249900 bytes, 23 tensors)

shared.0.weight f4 [256, 1]
000000 14 a4 98 3e 3b d7 10 bf 9b da 5e 3f 69 b9 fa be
       0.29812682 -0.56578416 0.87052315 -0.48969582
000010 68 72 76 3e b8 79 21 3f 8a da 4b bf 1a 19 86 bf
       0.2406708 0.63076353 -0.7963034 -1.047641
000020 46 98 0b 3e c8 20 bb be 56 b8 98 bd 37 7a 19 3f
       0.13632306 -0.36548448 -0.07457034 0.5995211
000030 62 84 1c 3f 6f 2a 46 3f fe fa 37 3e 0b c4 28 bf
       0.611395 0.774085 0.1796684 -0.6592414
000040 8c ad 23 be bc 8e 10 3e a2 45 55 3f ac 05 69 bf
       -0.15984172 0.14116949 0.83309376 -0.9102428
000050 f2 ce 42 bf b0 00 49 3f 9d a5 4d 3e c3 10 21 3f
       -0.76097023 0.78516674 0.20082708 0.629162
000060 37 2b 15 bf ac c5 94 3e 68 ac 07 be a5 91 0d 3f
       -0.58269066 0.29057062 -0.13249362 0.5530036
000070 87 ee 21 bf 52 d7 8a be ae ca 57 be bd ac 26 bf
       -0.6325459 -0.271174 -0.2107341 -0.6510733
000080 0b 94 39 bf 47 c0 78 be 32 44 a1 3e 09 02 1f 3d
       -0.7249152 -0.24292098 0.3149734 0.0388203
000090 60 0d 14 bf 98 dc e2 3e bf 46 7e 3f 17 6d 65 bf
       -0.5783291 0.44308925 0.993267 -0.8961958
0000a0 72 c3 76 3f ba 8b 4b bc d2 87 58 3e e4 74 f7 be
       0.96391976 -0.01242345 0.21145561 -0.48331368
0000b0 4a 1e 65 bf 9a 63 76 3f 79 4d 0c bc 07 0a 57 be
       -0.8949934 0.9624573 -0.008563393 -0.20999919
0000c0 33 b1 e3 3c b0 71 bc bd a9 d4 05 3f 63 87 ab 3e
       0.027794456 -0.09201372 0.5227762 0.3350173
0000d0 f5 2c 65 bf 0f 34 d3 3e 41 40 4b bf 96 22 34 3e
       -0.89521724 0.41250655 -0.7939492 0.17591318
0000e0 db c2 56 3f 77 4a 17 bf 82 ed 35 bf 99 56 31 bf
       0.83891076 -0.59098 -0.71065533 -0.6927276
0000f0 bb ed 7c 3f 48 2e fa 3e 26 2c 1d bf 3f 13 e2 3e
       0.9880025 0.48863435 -0.6139549 0.4415531
000100 aa 58 95 3e e2 36 f7 be 4e 15 71 bf 25 aa 32 3f
       0.29169208 -0.4828406 -0.94173133 0.6979087
000110 29 2a 7b 3f ce bf 29 3f cf aa 12 3e aa bc 11 3f
       0.98111206 0.66308296 0.14322971 0.56928504
000120 24 3a 4a 3f 24 5e 12 3e 9e 10 2a be 39 57 58 3f
       0.78994966 0.14293724 -0.16607901 0.8450809
000130 7e c4 30 bf 56 3a 00 3f c1 27 58 bf 2e 29 d8 be
       -0.69049823 0.50089014 -0.8443566 -0.42218918
000140 a5 b0 f7 3e 26 fd 14 bf 8b ac 16 be 43 cb 46 bd
       0.48376957 -0.58198774 -0.14714257 -0.04853369
000150 6e 26 23 3e 27 ac 37 bc ea e0 40 be 5b c7 0f 3f
       0.15932629 -0.011210478 -0.18835798 0.5616357
000160 4b 2e 03 bf 90 c3 8f be 2b 3c bd 3e 89 6f 09 be
       -0.5124251 -0.2807889 0.36959967 -0.13421454
000170 a5 ef 32 bf f4 0c 9b be c1 02 ed bc 2a d3 4e 3f
       -0.6989692 -0.3028332 -0.028931977 0.8079096
000180 54 5b f9 3e 99 3f 07 bf c9 c0 e2 be 91 8b ad be
       0.4870249 -0.5283142 -0.44287708 -0.33895543
000190 b1 2b 44 bf 58 b9 76 3f dd e3 ec 3e 2f 93 69 3e
       -0.7662917 0.9637656 0.46267596 0.22810052
0001a0 53 5f 6c bf 02 b0 3f 3e 38 40 81 be b7 72 ba bd
       -0.92332953 0.18719485 -0.25244308 -0.09103911
0001b0 28 e9 5c 3f b3 0c 49 be 65 e1 52 bf 5e a6 da be
       0.8629327 -0.1963375 -0.82375175 -0.42705053
0001c0 42 6e 59 3f 6f ec 76 3f 0f 6b e2 3e 5c cc bd 3e
       0.84933865 0.9645452 0.44222304 0.37069976
0001d0 49 58 86 3e 88 d0 15 be 9d c7 05 bf 33 89 d5 bb
       0.2623923 -0.1463033 -0.5225771 -0.0065165996
0001e0 4a 8c ef bb 70 fe af 3e d2 b0 dd 3d 06 9c 51 be
       -0.007310425 0.34373808 0.108247414 -0.20469674
0001f0 88 9f 35 bf 29 9d ca 3e 3b 7d 4c 3f 89 81 10 bf
       -0.7094655 0.3957303 0.79878587 -0.56447655
000200 b7 6b 5d bf 34 68 9f be 70 ea 23 3f d9 95 38 bf
       -0.86492485 -0.31134188 0.640296 -0.7210365
000210 35 54 c4 be 94 9e 1f 3f cd b0 45 be cc 36 2c bf
       -0.38345495 0.62351346 -0.19305725 -0.67271113
000220 81 4a 84 3f 49 6a 5f bf 81 85 ce 3d 59 9d 7e 3e
       1.0335237 -0.87271553 0.100840576 0.24864711
000230 62 78 d0 3e b4 3f 06 3f 61 fb 5e 3f 6e 7b 0a bf
       0.40716845 0.52440953 0.87102324 -0.5409459
000240 16 9f 3c 3e 13 84 fc 3e 78 ba cf be 68 5b 27 3f
       0.18420061 0.49319515 -0.40571952 0.6537385
000250 23 8b 7c 3f a1 67 10 be 50 7c 55 bf cf 0a 3a bb
       0.98649806 -0.14102031 -0.8339281 -0.002838779
000260 89 90 91 3e fc ce 70 bf 3b d1 25 bf da 37 2f bf
       0.28430584 -0.94065833 -0.64772385 -0.684446
000270 7e 57 5c be b2 62 d0 be f9 59 a9 3d 24 ef 58 3f
       -0.2151775 -0.407003 0.08269114 0.847399
000280 15 71 2a bf 63 d9 6a 3e 4d 90 a2 bc 66 31 97 3b
       -0.665788 0.22934489 -0.019844199 0.004614043
000290 ee aa f5 3c 92 00 03 bf 00 d6 5d bf db cd 81 bf
       0.029988732 -0.51172745 -0.86654663 -1.0140947
0002a0 cf be 04 bf a5 ea 79 be 43 a1 06 bf cc bc 3d 3f
       -0.5185365 -0.24405916 -0.52589816 0.74116206
0002b0 3e f8 38 bf dd 22 b2 be 96 4f 1f bf 4d 23 68 3f
       -0.7225379 -0.34792224 -0.62230814 0.90678865
0002c0 e9 a5 de bd 7e 9a 87 3e f2 09 38 bf 75 9e 5f be
       -0.108714886 0.26485056 -0.71890175 -0.2183779
0002d0 f6 b3 76 be de ef 5b bf ad 1f a8 3d 06 2e 73 bf
       -0.24092087 -0.85912883 0.08209167 -0.949921
0002e0 b0 20 41 bf e5 f7 69 bf 9d c3 27 3f 74 9c 7f bd
       -0.754405 -0.9139388 0.6553286 -0.062405065
0002f0 ff 1e b4 bd 3e 7a 55 3f db 72 4f 3f 99 bc 00 bf
       -0.087949745 0.8338965 0.8103463 -0.5028778
000300 c7 1b 78 3e 1d 34 21 3f 09 2d 33 bf 06 2d 8e bd
       0.24229346 0.62970144 -0.69990593 -0.06942181
000310 ba d7 94 3e 44 45 75 bf 71 73 aa bd 0b 21 a4 bd
       0.29070836 -0.95808816 -0.083228 -0.08014115
000320 ec d6 23 3f 97 a4 68 be 78 01 74 bf 5e 78 e1 be
       0.6399982 -0.22719036 -0.9531474 -0.44037145
000330 23 22 5b 3f ee de a0 3e db 0b b7 3c 8b 74 2c 3f
       0.85598963 0.31420082 0.02234452 0.6736533
000340 fe f3 63 3f 97 13 5b bf e0 08 45 3d 3c 94 b1 be
       0.8904418 -0.85576767 0.048104167 -0.34683406
000350 69 89 56 be 75 69 61 3f cd 80 76 3f 9a 1d 7c 3e
       -0.20950855 0.8805154 0.96290284 0.24620667
000360 3f f5 83 3e cf c3 f0 be 9a 61 b6 be 88 9e 5c bf
       0.25773045 -0.4702439 -0.3562134 -0.861794
000370 ec 4d 89 be 4c 8c 02 3d fb 6e 5e bf fa 89 d9 3d
       -0.26817262 0.03187208 -0.8688809 0.1062202
000380 52 fb 2e 3f aa 6f 2e bf c1 08 0d 3f 20 06 5c bf
       0.68352234 -0.68139136 0.5509148 -0.85946846
000390 19 3e 7b bf 50 85 99 3e 1a 2f 7f 3d 78 e2 4f 3f
       -0.9814163 0.29984522 0.06230078 0.8120494
0003a0 76 ae 33 bf 19 c0 81 3f f0 46 34 3f bc a5 8e be
       -0.7018808 1.0136749 0.7042074 -0.2786082
0003b0 d3 6d 13 bf 3f ea da 3e 2d 96 51 3d ef 43 43 3f
       -0.57589453 0.4275684 0.05116861 0.76275533
0003c0 8d e1 6c 3f 78 2f 60 bf 7b bf 9c 3e ee 47 8d be
       0.92531663 -0.8757243 0.30614838 -0.2759394
0003d0 3c a1 48 3f 68 dd 48 bf ce a4 48 3f 88 b8 46 3f
       0.78371024 -0.7846284 0.7837647 0.7762532
0003e0 01 ea 92 3e de d4 79 3f ae 8c e7 3d 7a d8 94 3e
       0.28694156 0.97590435 0.113061294 0.2907141
0003f0 43 ad 84 bf 56 dd 54 bf 06 30 43 bd 97 5a fa 3e
       -1.0365375 -0.8315023 -0.04765322 0.4889724

shared.0.bias f4 [256]
000000 56 e3 e8 be 4b cd 44 bd 8a ec f7 bd 80 e5 5a 3f
       -0.45485944 -0.048047345 -0.12105663 0.8550644
000010 a5 fd e3 be bd e7 34 3f d6 af ea be 87 12 17 bd
       -0.44529453 0.70666105 -0.45837277 -0.036882903
000020 a1 e3 5c 3c 68 ca 42 be 06 8b 91 be b1 6f cf 3e
       0.013482005 -0.19022524 -0.2842638 0.405149
000030 e5 3f 0b 3f 90 f3 03 bf 6e 4f b6 be 0b 54 36 be
       0.5439437 -0.5154352 -0.35607475 -0.17805497
000040 a0 4a a5 be 3d 0d 72 3f a1 dd 08 bf e9 05 82 3e
       -0.32283497 0.9455145 -0.5346318 0.25395134
000050 c5 3e 6f 3e c9 f6 b9 be 15 25 04 3f e2 67 36 be
       0.23363788 -0.36321095 0.5161908 -0.17813066
000060 1d f1 fe 3e fa 80 ee 3e 44 1d 48 3f 83 1d 15 bf
       0.4979333 0.46582776 0.78169656 -0.58248156
000070 70 a7 2c be 26 d8 03 bf 81 7b 17 bf 6a 04 3d 3f
       -0.16860747 -0.5150169 -0.59172827 0.7383486
000080 e0 14 06 3f de e7 2b bf c7 b2 ea be 5a c1 bb be
       0.523756 -0.67150676 -0.4583952 -0.36670953
000090 56 5d f5 be 4b 47 56 3e e4 f6 e5 3e 18 dc f4 3e
       -0.47922772 0.20925634 0.44914925 0.47824168
0000a0 81 50 ec 3e 4e e6 e1 3e 09 64 3f 3f 96 36 0f be
       0.4615517 0.4412102 0.74762017 -0.13985667
0000b0 f9 bf 52 bd 9d 11 18 3f 02 49 51 bf 1c 39 e8 3c
       -0.05145261 0.59401876 -0.81752026 0.028347544
0000c0 57 d1 28 3e 3f ff 53 3b 3e 73 ff 3e 17 e2 31 3c
       0.16486107 0.0032348183 0.4989261 0.010857127
0000d0 1e 4f fd be 93 6a c6 3e 64 4e 2e bf b2 4f 22 bf
       -0.49474424 0.38753185 -0.68088365 -0.63402855
0000e0 de 42 52 3f 97 c1 dc 3e 57 02 cf be 7d 84 06 bd
       0.8213328 0.43116447 -0.40431473 -0.032841194
0000f0 15 88 5c 3e 25 ce 42 bf 1f 68 dc be ec c1 4b 3f
       0.21536286 -0.760958 -0.43048188 0.79592776
000100 27 ca c4 be 45 15 77 be 57 85 0c 3f 65 62 5b 3f
       -0.3843548 -0.24129207 0.5489096 0.85697013
000110 a5 37 a4 be 3d c2 24 bf ca 4e d1 bd 82 c3 cf 3e
       -0.32073703 -0.64358884 -0.10220106 0.40578848
000120 b3 74 a3 bd d8 14 51 3f 41 fa dc be f1 9e 03 bf
       -0.07981243 0.8167243 -0.4315968 -0.514144
000130 e6 bf 12 be a5 e5 a2 be c6 07 19 bd 31 93 2f bf
       -0.14331016 -0.3181583 -0.03736093 -0.6858397
000140 60 50 30 bf e3 d4 4b 3f 16 e1 2a 3f 67 55 8a 3d
       -0.6887264 0.79621714 0.66749704 0.067545705
000150 71 7b ff 3e c5 25 32 3d a6 a3 38 be d8 b6 e4 3e
       0.49898866 0.04349305 -0.18031177 0.4467075
000160 d2 dd 9c be 18 ab 40 3f 50 73 a3 3e 40 4c 48 bf
       -0.30637985 0.7526107 0.31923914 -0.7824135
000170 5b 13 31 3f 3c 3b a0 bd f3 40 f9 be 03 ff 10 bf
       0.6917016 -0.07823798 -0.48682365 -0.56639117
000180 fa 79 ca 3e fa 97 8f 3e 2a f6 98 be 10 13 b9 3d
       0.39546186 0.28045636 -0.29875308 0.09036839
000190 5c 90 3d 3f d0 eb 20 3f 5f a2 68 3f 50 b2 77 3e
       0.740484 0.6285982 0.9087276 0.24189115
0001a0 a6 c6 e0 bc 8c 8e 40 bc b5 f6 74 be 50 71 d5 be
       -0.027438473 -0.011752736 -0.23922236 -0.41688013
0001b0 2e 6a 26 bf ec fc e9 be 1c 76 14 bf ce 91 92 be
       -0.6500577 -0.45700777 -0.5799272 -0.28626865
0001c0 78 78 8b be 43 3f 16 3f 92 ea f3 bd 23 b9 a1 3e
       -0.27240348 0.5869028 -0.11909975 0.3158656
0001d0 16 7a 4b be 41 8b fb be 93 ff 3c bf 8c 9d a9 3e
       -0.19870791 -0.4912968 -0.73827475 0.3312801
0001e0 8e b5 bc 3e 4a 5a 9a 3e 56 39 f0 3e b9 75 50 3f
       0.36857265 0.3014701 0.46918744 0.8142963
0001f0 4b dc 54 bf 4f 46 f7 bd 86 c1 ca bd 8d c7 98 be
       -0.8314864 -0.12073957 -0.09900193 -0.29839745
000200 05 0c 3b 3d 85 12 a0 3e 70 10 ee be 4d 75 05 bf
       0.04566576 0.3126413 -0.46496916 -0.5213211
000210 c2 71 49 bf 91 85 55 3f b2 ba 86 3e 33 f9 c6 be
       -0.78689206 0.8340693 0.26314312 -0.38862
000220 e1 e0 fa 3e 21 00 0a bf ea de d7 3e 0d 04 a7 3d
       0.48999694 -0.53906447 0.42162257 0.081550695
000230 3a e9 87 be 54 36 52 3f 11 df 83 3e 8b 9b 19 be
       -0.26545125 0.8211415 0.25756124 -0.15000741
000240 86 ec e5 be 11 ff e5 3e d0 cc 69 3e 90 fc fd be
       -0.44907016 0.44921163 0.22832036 -0.49606752
000250 01 84 1a 3f 0d 73 19 3c 19 0d 52 3f 68 a2 aa be
       0.6035767 0.009365809 0.82051235 -0.3332703
000260 27 76 2e bf 25 3d 9d be 66 4c af be 87 5b 68 bd
       -0.68149036 -0.30710712 -0.34237975 -0.056727912
000270 63 93 2c 3e 69 38 1e 3f 25 76 8f 3e 06 6c c7 bd
       0.16853099 0.61804825 0.28019825 -0.09737401
000280 f9 8b 32 3f 5f 46 c4 3e c2 2b 6c 3f f9 c4 dc be
       0.6974483 0.3833494 0.9225427 -0.43119028
000290 16 53 e0 3e 5c 53 36 3f e4 81 19 3f 70 f8 7d bd
       0.4381339 0.71220946 0.5996382 -0.062004507
0002a0 36 ce b9 3e 65 fa d9 3e 7a 8b a4 bd ea 56 01 bf
       0.3629014 0.42573848 -0.080344155 -0.50523245
0002b0 93 ab 26 3f 09 7a 27 3f 40 4c 8a 3e 0c 32 1d bd
       0.6510555 0.65420586 0.270113 -0.038377807
0002c0 b1 44 02 be 70 e6 34 be 75 04 1c 3f ec 53 24 3e
       -0.12721516 -0.1766603 0.609443 0.16047639
0002d0 2a 63 c3 bd 7f 8e 43 bf c3 89 e8 be e4 d3 26 bf
       -0.095403984 -0.76389307 -0.45417604 -0.6516707
0002e0 98 bc cb be 90 76 74 3e e1 d5 f6 be 21 d5 b4 be
       -0.39792323 0.23873353 -0.48210052 -0.35318854
0002f0 6f 84 eb 3a 3f 1d 67 3e 15 14 09 bf f3 85 52 3d
       0.0017968545 0.2256975 -0.5354627 0.051397275
000300 02 c6 40 bf 24 c5 57 be 8e d1 42 be d2 e4 49 3f
       -0.75302136 -0.21071297 -0.19025251 0.7886478
000310 74 4a 03 3f 24 cb 2c 3f 5c ec cd be 60 1e 66 3e
       0.5128548 0.6749747 -0.4021939 0.22472525
000320 eb a0 0d bf 88 0f f3 be 45 25 71 3f 41 2e 37 bf
       -0.55323666 -0.47472787 0.94197494 -0.7155495
000330 a7 e9 26 3f 33 4b 04 3f 23 89 a8 bc 4c 4f 5a 3f
       0.65200275 0.51677245 -0.020573204 0.8527725
000340 71 49 12 bf fa 46 c6 bb fc 6c 02 3f 0c 3c 82 3e
       -0.5714331 -0.0060509415 0.50947547 0.25436437
000350 cf 13 8d 3d 40 b0 da 3e 19 00 51 bd c2 e7 22 3f
       0.06888544 0.42712593 -0.051025484 0.63634884
000360 b5 94 6b 3e 7c e9 87 3e c7 a7 4c 3f da dc cc be
       0.23005946 0.26545322 0.7994351 -0.40012246
000370 6d d1 a4 be 83 40 0a 3e 2a ff 1f bf 3d cc 41 3f
       -0.3219103 0.13501172 -0.62498724 0.7570227
000380 b0 13 4d 3f 64 6f 4d be 1b 56 34 bf f5 1a 22 bf
       0.80108166 -0.20062023 -0.70443887 -0.63322383
000390 a9 7c 35 3f a3 26 a8 be e0 4a ff be b2 ad 3d bf
       0.7089334 -0.32841977 -0.49861813 -0.74093163
0003a0 c9 3b 71 3e 1c b5 5c 3f dc 1f 46 be e5 f4 18 3f
       0.23557962 0.8621385 -0.19348091 0.5974868
0003b0 1a ce 0f 3f b6 e9 f1 3d 82 2d fd be 33 08 af 3e
       0.5617386 0.11812155 -0.49448782 0.34185943
0003c0 17 c3 65 3e c0 5d 43 bf 44 79 fe 3e de 2b 35 bf
       0.22437702 -0.76314926 0.49701893 -0.7077006
0003d0 e0 75 16 bf bb c4 40 bf 91 46 f4 bd a6 40 06 bf
       -0.5877361 -0.75300187 -0.11927522 -0.52442396
0003e0 bd 2e 11 3f 08 d5 b2 bd dc 8d de 3e 55 55 53 3f
       0.5671194 -0.08732039 0.43467605 0.8255208
0003f0 ec 73 1b bf fe fa 31 3f b9 86 31 3d 49 7a b4 be
       -0.6072376 0.6952361 0.043341372 -0.35249546

shared.1.weight f4 [256]
000000 4f f4 7f 3f d4 b3 86 3f 77 12 8f 3f cc e3 76 3f
       0.9998216 1.0523629 1.117751 0.9644134
000010 4f f4 7f 3f 7f 9c 75 3f 13 7e 95 3f 51 ed 87 3f
       0.9998216 0.9594192 1.16791 1.0619298
000020 68 a5 8d 3f c1 f6 9a 3f 4f f4 7f 3f e7 f4 7c 3f
       1.1066103 1.2106553 0.9998216 0.9881119
000030 99 12 78 3f 03 08 9c 3f 4f f4 7f 3f f6 f8 8b 3f
       0.9690338 1.2189945 0.9998216 1.0935352
000040 4f f4 7f 3f b2 14 73 3f d7 10 96 3f 7c 53 80 3f
       0.9998216 0.94953454 1.1723889 1.0025477
000050 dc 02 80 3f 92 f4 8f 3f 25 71 79 3f 87 6e 86 3f
       1.0000873 1.1246512 0.9743827 1.050248
000060 83 67 7b 3f b6 4f 74 3f 5a cd 72 3f 4f f4 7f 3f
       0.9820482 0.9543413 0.9484459 0.9998216
000070 6b 3f 8f 3f 4f f4 7f 3f 4f f4 7f 3f 5e ba 74 3f
       1.1191229 0.9998216 0.9998216 0.95596874
000080 61 25 7b 3f 4f f4 7f 3f 4f f4 7f 3f 4f f4 7f 3f
       0.9810391 0.9998216 0.9998216 0.9998216
000090 be 70 b5 3f 2c f8 85 3f fd ff 86 3f a0 72 7d 3f
       1.4175031 1.0466361 1.0546871 0.9900303
0000a0 3d 31 84 3f ce 86 79 3f f4 38 72 3f 67 cc b1 3f
       1.0327526 0.9747132 0.94618154 1.3890504
0000b0 85 48 86 3f 43 5b 7a 3f 4f f4 7f 3f 37 7d 85 3f
       1.0490881 0.97795504 0.9998216 1.0428838
0000c0 6d 2f 7c 3f c2 3c a1 3f 88 c0 7a 3f 86 44 85 3f
       0.98509866 1.2596667 0.9795003 1.0411537
0000d0 3b 1a 8c 3f f5 ad 7a 3f 30 7d af 3f 4f f4 7f 3f
       1.0945505 0.9792169 1.3710079 0.9998216
0000e0 c5 58 74 3f cc fd 7b 3f 53 fc 93 3f da d2 87 3f
       0.9544795 0.9843414 1.1561378 1.0611222
0000f0 71 e2 80 3f 4f f4 7f 3f 8f af a6 3f 58 5b 73 3f
       1.0069104 0.9998216 1.3022326 0.95061255
000100 4f f4 7f 3f 63 8a 8c 3f 05 13 79 3f 9f 68 74 3f
       0.9998216 1.0979732 0.97294647 0.9547214
000110 fd 7c 88 3f ac ef 7f 3f da 8c a9 3f 29 ae 7c 3f
       1.0663143 0.99975085 1.324611 0.9870325
000120 4d 14 88 3f ec 77 73 3f 4f f4 7f 3f cd 66 90 3f
       1.0631195 0.9510486 0.9998216 1.1281372
000130 6e d3 8d 3f c5 f5 9b 3f 37 ff 84 3f 4f f4 7f 3f
       1.1080148 1.2184378 1.0390385 0.9998216
000140 4f f4 7f 3f 19 66 77 3f e1 3b 75 3f b7 f3 7e 3f
       0.9998216 0.96640164 0.9579449 0.9959063
000150 66 3f 73 3f 26 8a 7e 3f 4f f4 7f 3f ed 67 7e 3f
       0.95018613 0.9942955 0.9998216 0.9937733
000160 35 6d a8 3f 37 9f 71 3f b3 ed 7e 3f 4f f4 7f 3f
       1.3158327 0.9438357 0.9958145 0.9998216
000170 bf 3f 77 3f e6 bb 9d 3f 4f f4 7f 3f d3 f9 a7 3f
       0.96581644 1.2322967 0.9998216 1.3123115
000180 56 b2 7c 3f 72 4b 7e 3f f0 fe a4 3f f4 b4 83 3f
       0.9870962 0.9933387 1.2890301 1.0289598
000190 bd 86 76 3f 37 ea 7a 3f da bf 6f 3f 93 eb 7b 3f
       0.96299344 0.98013633 0.9365212 0.9840633
0001a0 e1 8c 84 3f fb 6b 93 3f 4f f4 7f 3f 4f f4 7f 3f
       1.0355493 1.1517328 0.9998216 0.9998216
0001b0 5e b1 b3 3f 4f f4 7f 3f ca f2 9e 3f 06 a9 b2 3f
       1.4038503 0.9998216 1.2417843 1.3957832
0001c0 a6 0d 87 3f e1 8c 7d 3f b3 fb 85 3f ee 4d 7d 3f
       1.055104 0.9904309 1.0467438 0.98947036
0001d0 24 9d ab 3f 4f f4 7f 3f 4f f4 7f 3f fd c0 7a 3f
       1.340733 0.9998216 0.9998216 0.97950727
0001e0 ed 11 78 3f 08 9b 7d 3f ad 1a 76 3f 5c 7f 74 3f
       0.9690235 0.99064684 0.96134454 0.95506835
0001f0 4f f4 7f 3f ae 08 89 3f 13 92 87 3f e7 cc 8e 3f
       0.9998216 1.0705774 1.0591453 1.1156281
000200 c1 6f 83 3f 01 b1 7c 3f ca b6 ac 3f 32 e2 a7 3f
       1.026848 0.98707587 1.3493283 1.3115904
000210 4f f4 7f 3f 7d 8a 74 3f 11 f9 79 3f 98 3b 97 3f
       0.9998216 0.95523816 0.9764567 1.1815062
000220 ca 44 86 3f a6 e6 99 3f 78 93 79 3f bc 01 84 3f
       1.0489743 1.2023513 0.97490644 1.0313029
000230 3e 4d a6 3f 10 01 70 3f f7 e9 80 3f 55 a7 99 3f
       1.2992322 0.9375162 1.00714 1.2004191
000240 4f f4 7f 3f 78 b5 79 3f 15 71 81 3f c3 4a b7 3f
       0.9998216 0.97542524 1.0112635 1.431969
000250 1c 36 7b 3f 6b 2f 9a 3f 09 07 77 3f 4f f4 7f 3f
       0.9812944 1.2045721 0.9649511 0.9998216
000260 4f f4 7f 3f ff 0b a1 3f 17 f8 89 3f db 76 87 3f
       0.9998216 1.2581786 1.0778836 1.0583147
000270 6c 02 7e 3f f8 29 76 3f 88 37 79 3f 13 64 8b 3f
       0.99222445 0.9615779 0.9735036 1.0889915
000280 4a f3 78 3f 8d d0 7a 3f e2 4c 71 3f 4f f4 7f 3f
       0.9724623 0.97974473 0.9425794 0.9998216
000290 1b 7b 79 3f f9 4c 76 3f 09 34 75 3f 6d 14 88 3f
       0.9745347 0.962112 0.95782524 1.0631233
0002a0 4a 9c 7b 3f 2d 70 78 3f 61 4c 8c 3f 9a 62 a4 3f
       0.98285353 0.97046167 1.0960809 1.2842591
0002b0 98 bc 77 3f 8c 8a 74 3f 33 23 80 3f c8 60 85 3f
       0.96772146 0.95523906 1.0010742 1.042016
0002c0 4f f4 7f 3f 4b 64 b4 3f be 10 78 3f cc 39 81 3f
       0.9998216 1.4093107 0.96900547 1.0095763
0002d0 a7 eb 89 3f 25 e5 bc 3f 4f f4 7f 3f 0b 76 98 3f
       1.077504 1.4757429 0.9998216 1.1911024
0002e0 4d 59 8b 3f 59 cf 7d 3f 6b a5 af 3f 4f f4 7f 3f
       1.0886627 0.9914451 1.3722357 0.9998216
0002f0 9d 50 9b 3f c4 df 80 3f b8 de 9d 3f 26 89 83 3f
       1.2133976 1.0068288 1.2333593 1.0276229
000300 4f f4 7f 3f 8d bf 88 3f c8 37 94 3f f6 87 72 3f
       0.9998216 1.0683457 1.1579523 0.9473871
000310 43 c9 79 3f b7 99 79 3f 4f f4 7f 3f f4 65 7d 3f
       0.97572726 0.97500175 0.9998216 0.98983693
000320 37 b2 c7 3f 4f f4 7f 3f 3a cf 75 3f 4f f4 7f 3f
       1.5601262 0.9998216 0.9601933 0.9998216
000330 ba 9c 7d 3f 32 8d 76 3f 4f f4 7f 3f c8 bb 70 3f
       0.9906727 0.96309197 0.9998216 0.9403653
000340 8c d2 99 3f 51 fc 84 3f d1 1e 7b 3f 16 88 80 3f
       1.2017379 1.0389501 0.980939 1.004153
000350 c9 a8 82 3f 28 8a 84 3f ac c9 83 3f 77 11 74 3f
       1.0207759 1.0354662 1.029592 0.9533915
000360 97 c9 7f 3f e5 b5 7f 3f 63 05 72 3f 51 9e 86 3f
       0.99916977 0.99886924 0.9453947 1.0517064
000370 4f f4 7f 3f 54 f8 80 3f d2 c9 a7 3f 15 49 74 3f
       0.9998216 1.0075784 1.3108466 0.95424014
000380 04 44 74 3f a1 81 97 3f 4f f4 7f 3f 97 37 a7 3f
       0.95416284 1.1836435 0.9998216 1.306384
000390 58 37 78 3f 4f f4 7f 3f 4f f4 7f 3f 72 7a b2 3f
       0.9695945 0.9998216 0.9998216 1.3943617
0003a0 e9 fd 7f 3f 81 ff 72 3f 4b 28 86 3f 75 a9 76 3f
       0.9999681 0.9492112 1.0481046 0.9635232
0003b0 28 78 76 3f c9 3e 88 3f 4f f4 7f 3f f2 08 86 3f
       0.96277094 1.064416 0.9998216 1.047148
0003c0 71 6f 80 3f 85 99 b5 3f e0 e6 7a 3f 4f f4 7f 3f
       1.0034009 1.4187475 0.9800854 0.9998216
0003d0 ee 13 b0 3f 4f f4 7f 3f 14 34 8b 3f 68 de 9b 3f
       1.3756082 0.9998216 1.0875268 1.2177248
0003e0 00 e2 78 3f 8c 0e 89 3f bb a4 74 3f 4b a2 74 3f
       0.9721985 1.0707564 0.9556386 0.9556014
0003f0 24 44 96 3f f6 ca 74 3f c9 e1 80 3f eb c0 b0 3f
       1.1739545 0.95622194 1.0068904 1.3808874

shared.1.bias f4 [256]
000000 00 00 00 00 e2 7c 1b 3d c8 7e 25 3c ef 4a 3b bd
       0.0 0.037960894 0.010101028 -0.04572576
000010 00 00 00 00 46 5e 34 bd 99 ec 89 3d 16 c5 27 bd
       0.0 -0.04403522 0.067345805 -0.04095944
000020 42 23 8a 3b 0a b3 0f 3d 00 00 00 00 ac bb 95 bc
       0.004215629 0.035082854 0.0 -0.018277965
000030 ae c3 4b bd 3f 02 83 39 00 00 00 00 f3 f7 44 bc
       -0.04974716 0.0002498794 0.0 -0.012022006
000040 00 00 00 00 6b 33 70 bd 6d de 94 bc 7f 3e f9 3a
       0.0 -0.058642786 -0.018172467 0.0019015818
000050 c5 04 fc bc 10 0e 6e bc 46 55 ff bc 28 cc 2d bc
       -0.030763993 -0.01452972 -0.031168591 -0.010607757
000060 bc b5 d9 bb 95 a5 6c bd 90 6a 85 bd 00 00 00 00
       -0.006643979 -0.0577751 -0.06514466 0.0
000070 b1 05 5d bc 00 00 00 00 00 00 00 00 7a ef 4b bd
       -0.0134901265 0.0 0.0 -0.04978893
000080 8c b2 ef bc 00 00 00 00 00 00 00 00 00 00 00 00
       -0.029259942 0.0 0.0 0.0
000090 54 5a 81 3d a4 9d c9 3c c7 f1 7a 3b b1 98 32 bc
       0.06316057 0.024611302 0.0038291083 -0.010900662
0000a0 15 2f 33 bd 2b ea 03 bd 84 df 4d bd c8 12 22 3d
       -0.043746073 -0.03220574 -0.05026199 0.039568692
0000b0 92 54 4b 3c 3c 25 21 bd 00 00 00 00 6f 1e 2a 3c
       0.0124103 -0.03934215 0.0 0.0103832325
0000c0 67 79 ca bc 74 a3 a6 3b b7 d5 34 bd f7 3e b4 bc
       -0.024716092 0.005085403 -0.044149127 -0.02200268
0000d0 58 89 bc 3c ea e1 0c bd f0 0d 67 3d 00 00 00 00
       0.02301471 -0.034395136 0.056409776 0.0
0000e0 e9 eb 82 bd a0 45 c7 bc 41 61 70 3d f1 09 81 3c
       -0.063926525 -0.024325192 0.0586865 0.01575181
0000f0 d6 d8 cd 3c 00 00 00 00 3a 5d 96 3d 7b a4 6b bd
       0.02512781 0.0 0.07342 -0.057529908
000100 00 00 00 00 b3 a4 93 3b 28 07 aa bd 2c 21 8d bd
       0.0 0.0045057177 -0.08302146 -0.06891093
000110 40 87 1b 3d 32 1c 85 bb 06 7a a7 bc 1c 58 10 bc
       0.03797078 -0.004062199 -0.020443927 -0.008810069
000120 6f 49 09 bd f9 c7 48 bd 00 00 00 00 31 db 4c bd
       -0.033517297 -0.049018834 0.0 -0.050013725
000130 3e e6 a6 3c c3 61 01 3c 61 f3 cb ba 00 00 00 00
       0.02037346 0.007896843 -0.0015560203 0.0
000140 00 00 00 00 c9 89 50 bd ec ee 29 bd 24 ae 5f bb
       0.0 -0.050912652 -0.04148762 -0.0034130896
000150 03 18 27 bd 70 0a 6d bc 00 00 00 00 f7 fb 17 bc
       -0.040794384 -0.0144678205 0.0 -0.009276382
000160 f2 41 b4 3d e1 2c 75 bd 1b 2d be bc 00 00 00 00
       0.088016406 -0.059857253 -0.023214867 0.0
000170 32 99 30 bd d2 8e 01 3d 00 00 00 00 66 36 b4 3c
       -0.04311485 0.031630345 0.0 0.021998595
000180 49 72 07 bd 93 5b 08 3b a2 8b 8b 3d 56 aa 03 3d
       -0.033067975 0.0020806536 0.06813742 0.032144867
000190 00 03 d8 bc 30 bd 4a bd 6d c4 7f bd f7 c4 c9 bc
       -0.026368618 -0.04949683 -0.062443186 -0.024630053
0001a0 c1 f5 e8 bc 9a cd b2 3c 00 00 00 00 00 00 00 00
       -0.028437497 0.021826554 0.0 0.0
0001b0 fa 78 81 3d 00 00 00 00 3b 53 38 3d cf 50 80 3d
       0.063219026 0.0 0.04500125 0.06265413
0001c0 41 91 f7 3c 63 c1 51 bd 77 52 89 bb 3b e4 bc bc
       0.03022063 -0.05120982 -0.004190739 -0.023058048
0001d0 a2 b6 12 bb 00 00 00 00 00 00 00 00 43 ef d3 bc
       -0.002238669 0.0 0.0 -0.025870925
0001e0 51 0e 1a bd b5 e1 05 bd 2d 19 36 bd 2c 83 66 bd
       -0.03761131 -0.032685954 -0.044457603 -0.05627744
0001f0 00 00 00 00 c1 a8 f3 3c 11 48 3d bc fe d6 94 3c
       0.0 0.029743554 -0.0115528265 0.018168923
000200 0c f4 3e bd c2 a9 51 bc 0e c9 2d 3d 36 84 52 3d
       -0.04661946 -0.012796821 0.04242807 0.051395617
000210 00 00 00 00 b6 14 75 bd a1 57 16 bd 7b 4f 95 3d
       0.0 -0.059834205 -0.036704663 0.0729055
000220 3b 88 31 bd 0e 95 e3 3d 8b 6c 30 bd 75 d2 00 3d
       -0.04334281 0.11112414 -0.043072265 0.031450707
000230 69 29 c0 3c e1 ef 89 bd 39 2c 25 bc f8 26 58 3c
       0.023457246 -0.067352064 -0.010081344 0.013192885
000240 00 00 00 00 36 32 2a bd d9 9d 48 bb 3a 5d 89 3d
       0.0 -0.04155179 -0.0030611663 0.06707235
000250 f0 a7 48 bd 7f f9 e0 3c f5 44 4b bd 00 00 00 00
       -0.048988283 0.027462719 -0.04962631 0.0
000260 00 00 00 00 5f 12 93 3d 4a 61 07 3c c4 d1 85 3c
       0.0 0.071812384 0.008262942 0.016335376
000270 e5 32 c2 bb 58 13 66 bd 28 e0 03 bd 56 a5 0e bc
       -0.0059264773 -0.05617079 -0.032196194 -0.008706411
000280 29 69 2a bd 3b c2 f5 bc fe b4 79 bd 00 00 00 00
       -0.041604195 -0.029999843 -0.060963623 0.0
000290 27 fa 18 bd 63 fd 46 bd 07 ae 61 bc a6 8c 8e 3c
       -0.03734794 -0.048581492 -0.0137744015 0.01740105
0002a0 11 4e c8 3b 9a 01 2e bd 1a 9f dd 3c 68 b3 d1 3c
       0.006112822 -0.042481996 0.027053405 0.025598243
0002b0 d9 6f 47 bd 1b 1a 6f bd 57 d1 6e bc a8 cf 14 bd
       -0.04869065 -0.058374505 -0.014576278 -0.03633085
0002c0 00 00 00 00 24 94 26 3d 7d 30 3a bd 10 44 22 3c
       0.0 0.04066862 -0.0454564 0.009903923
0002d0 22 eb 1b bc a4 b8 99 3d 00 00 00 00 ee c4 8d 3d
       -0.009516509 0.075059205 0.0 0.06922327
0002e0 d3 71 76 bb a9 97 dc b9 81 eb 53 3d 00 00 00 00
       -0.0037604466 -0.00042074666 0.051738266 0.0
0002f0 66 79 3b 3c d2 6b 0f 3d 2b 03 73 3b 1e 99 1a 3b
       0.011442518 0.035014935 0.0037080746 0.00235898
000300 00 00 00 00 11 bc 59 3d 9c 25 81 bc 2c 75 67 bd
       0.0 0.05315787 -0.015765004 -0.05650823
000310 0b d2 02 bd 87 de b9 bc 00 00 00 00 58 5d b1 bc
       -0.031938594 -0.022689117 0.0 -0.021650955
000320 a1 47 ad 3d 00 00 00 00 e9 1d 85 bd 00 00 00 00
       0.08460928 0.0 -0.064998455 0.0
000330 a6 15 2c bd ed 6b 46 bd 00 00 00 00 1c 8a 8b bd
       -0.042012833 -0.04844277 0.0 -0.06813452
000340 5c 36 ca bc 3d 8e 45 bd 7c 6b 07 bd 93 76 43 bb
       -0.024684124 -0.048231352 -0.03306149 -0.0029825314
000350 fe 96 ae 3c 8b 3d 36 bd ee a2 4b bd 3d 8e 35 bd
       0.021312233 -0.044492286 -0.04971593 -0.044325102
000360 c8 0e c4 bc 06 6c 39 bc 1d 63 7b bd 12 9a 5e 3c
       -0.02393283 -0.011317259 -0.06137382 0.013586538
000370 00 00 00 00 d8 31 58 bc 9b 03 77 3d 7f bf 58 bd
       0.0 -0.013195477 0.060306173 -0.052917
000380 3e cd 87 bd 44 b1 b1 3c 00 00 00 00 53 d4 67 3d
       -0.06630944 0.021690972 0.0 0.056598973
000390 6d a9 4d bd 00 00 00 00 00 00 00 00 88 9d d6 3c
       -0.050210405 0.0 0.0 0.026198164
0003a0 01 55 08 bd 4b 07 99 bd d5 8a f0 bc 76 e5 1e bd
       -0.03328419 -0.07472094 -0.029363075 -0.03879305
0003b0 ba 9b ab bc 8e 83 4b 3d 00 00 00 00 43 35 d3 3c
       -0.02094828 0.049686007 0.0 0.025782233
0003c0 29 aa 5e 3c 00 d4 88 3d e7 7b 05 bd 00 00 00 00
       0.013590374 0.06681061 -0.032588866 0.0
0003d0 e8 f7 94 3d 00 00 00 00 56 03 1a 3d 02 74 0a 3c
       0.07273847 0.0 0.037600838 0.00845051
0003e0 03 c2 23 bd 4e a3 4d bd 27 12 3e bd 5a 08 2f bd
       -0.039979946 -0.050204568 -0.04640403 -0.042732574
0003f0 83 3d ae 3d 55 cd b8 bc 90 0d 99 3c 91 c7 49 3d
       0.08507826 -0.022558847 0.018683225 0.049262587

shared.4.weight f4 [128, 256]
000000 a7 f7 9d bc 20 58 57 3d da 69 c7 3c d4 22 ac bd
       -0.019283129 0.052574277 0.024342466 -0.084050804
000010 e5 2e 25 bd d9 f1 7b bc 51 ea ec bc 1f d4 87 bc
       -0.040327925 -0.015377485 -0.028920325 -0.01658064
000020 7d 40 8b 3d 4f 87 80 bc 4f 2c 59 3a 01 f4 e6 3b
       0.067994095 -0.01568952 0.00082844956 0.0070481305
000030 d8 75 b2 3b 2a 0f 06 3e 15 66 7a 3d aa 6f 8a 3d
       0.005446177 0.13091722 0.06113251 0.067595795
000040 5b aa a4 3c c0 3c 8d 3c 71 34 87 3d 81 6c e2 3b
       0.020100763 0.017240882 0.06601799 0.0069099073
000050 80 b1 74 3d a0 a2 00 3d e4 df 28 3d 19 b4 8b 3c
       0.05973959 0.03140509 0.041229144 0.01705365
000060 89 30 d7 3d 43 de 85 bc 3b 10 85 bc 9d 57 5d bd
       0.10507304 -0.016341334 -0.01624309 -0.054038633
000070 01 f1 43 bc 47 7c 41 3c 27 7b f0 3c bc 7c 74 bd
       -0.011959315 0.011809415 0.029355599 -0.05968927
000080 6e 61 94 3c fd 53 0a bd f7 8e 71 3c 57 72 3c 3d
       0.018112864 -0.033771504 0.014743558 0.04600748
000090 cb ca 1c bc a9 31 11 bd 44 c6 8a 3c 3b 8c 1d 3d
       -0.009569834 -0.03544775 0.016940244 0.038463812
0000a0 f3 12 0b ba 2a f5 11 bd b8 d1 33 3c 8e a9 4a 3d
       -0.0005305253 -0.035634197 0.010975294 0.049478106
0000b0 5c c5 b0 3d f6 b7 22 bc 21 f5 54 bd 14 ae 39 3a
       0.08631393 -0.009931555 -0.051991586 0.00070831296
0000c0 6f a8 28 bc 7a 63 ca bd 14 9a b5 3a 03 f5 4f 3c
       -0.010294064 -0.09882255 0.0013855123 0.012692693
0000d0 72 4d f9 bd a6 d2 02 bd 3d ef 7d 3d 4f de 34 bc
       -0.12172975 -0.03193917 0.061995734 -0.011039331
0000e0 7f ce da 3b b2 31 e1 3c 07 c8 ed bd 7b 1a 64 ba
       0.0066774483 0.027489517 -0.11610418 -0.00087014557
0000f0 82 72 0b bb 2f c2 2f 3c eb 2e 92 bd 67 46 e9 bc
       -0.0021277969 0.010727449 -0.07137855 -0.028475953
000100 61 d7 10 bd b4 59 89 ba 17 8a 64 3d 54 4d 77 3c
       -0.03536165 -0.0010479004 0.055795755 0.01509412
000110 4f 19 10 bd 84 05 12 bd 28 ff b4 be 32 df 0a 3c
       -0.035180386 -0.03564979 -0.3535092 0.0084760655
000120 69 d2 59 bb 34 f9 8c bc 3d d1 40 3d 66 c3 b1 3d
       -0.0033236986 -0.017208673 0.047074545 0.086798474
000130 52 ee e5 3c 44 53 00 3e 8a 36 41 3d 8f d0 69 bb
       0.028067742 0.12531763 0.047171153 -0.003567729
000140 95 28 09 bd f2 4c 91 bd 29 7d b3 3a 10 2e d7 3c
       -0.033485968 -0.07094754 0.0013693917 0.026267081
000150 29 be ec bc 09 46 d8 bc 9f 1a 88 bc 93 e9 21 bb
       -0.02889927 -0.026400583 -0.016614256 -0.0024705871
000160 77 8c 90 bd ea 8b 86 3c 41 63 3f 3b 7b 86 88 bc
       -0.070580415 0.016424138 0.0029203447 -0.016665688
000170 af 8c 13 be 87 01 9a bc 37 4f 70 3d bd c1 b0 3d
       -0.14409135 -0.018799556 0.058669295 0.08630703
000180 72 e7 eb bc a0 cb 7c 3d a5 00 f3 bb 0a 8c 21 bc
       -0.028796885 0.06171763 -0.0074158483 -0.009860048
000190 14 6f 26 be 64 da 14 bc 1f cf 19 bc a3 b3 df 3c
       -0.1625331 -0.0090852715 -0.00938776 0.027307337
0001a0 29 e9 e7 bc 87 4f 93 3b 7d 36 64 bd 57 38 4b bd
       -0.028309422 0.0044955644 -0.055716027 -0.049614277
0001b0 b9 43 27 3e e3 fd d6 3c 57 32 af 3b e2 8e 78 bd
       0.16334428 0.02624411 0.005346577 -0.06068314
0001c0 ec 17 5d 3d b6 2c 67 ba 3b 07 21 bd 49 a6 ff bc
       0.05397789 -0.0008818613 -0.039313536 -0.03120722
0001d0 7f b0 98 3e 1f ba 2e bd 23 2c 41 3d ff b4 95 bc
       0.29822156 -0.042657968 0.047161233 -0.018274782
0001e0 35 89 34 3c 8d cf 83 3c 6b 7b f6 3b 70 f9 31 bd
       0.011019041 0.016090179 0.007522037 -0.043450773
0001f0 bb be 4b bd b8 01 3d 3d 0c b8 43 3c e3 64 ae bc
       -0.04974244 0.046144217 0.011945736 -0.02128834
000200 e2 da 6e 3d c5 6a ef bd a1 fe 16 3e e0 b1 51 bd
       0.05831421 -0.116902865 0.1474557 -0.051195025
000210 ff ba 85 3b 3d 0b 07 3c 78 dd 70 bd a1 58 ee bd
       0.0040811296 0.0082424255 -0.05880496 -0.11637998
000220 66 85 65 3c 80 7a 88 bd 1d 9e 60 bc e8 f2 fe b9
       0.014008855 -0.0666399 -0.013709572 -0.00048627635
000230 ef 66 30 3d 53 45 83 bc 0a 7a da bb bf 8c d3 3c
       0.043066915 -0.016024267 -0.00666738 0.025823949
000240 5b 6d 03 3d 39 0a 3f 3c 00 2a cf 3d 69 cf a2 3d
       0.03208671 0.011660152 0.10115433 0.079497166
000250 2e 75 75 3c 8e fc 0a 3e 97 2f eb bd 6f ea a9 3b
       0.014981551 0.13572904 -0.114836864 0.0051854174
000260 1b 77 89 3c 09 d1 c0 3c fe d0 dd bd c4 bf 8c 3c
       0.016780427 0.023537176 -0.10830878 0.017181285
000270 48 23 e7 3d ec c3 97 bd e9 1e aa 3b 40 c9 0c bd
       0.11286026 -0.07410416 0.005191673 -0.034371614
000280 62 32 d0 bd cd 3f 8d 3c 62 d8 80 3c c1 5e 33 3d
       -0.1016586 0.017242337 0.01572818 0.043791536
000290 91 a1 fa bb fe b6 37 bd 95 43 ad ba 59 a3 85 3d
       -0.0076486547 -0.04485225 -0.0013218994 0.06525297
0002a0 a0 b3 9e 3c b0 33 82 bd 28 10 3d 3d 31 e1 de 3d
       0.019372761 -0.06357515 0.046157986 0.108827956
0002b0 39 93 b5 bc 14 42 40 bc 14 88 55 3d a1 d4 bb bc
       -0.022164928 -0.011734504 0.052131727 -0.022928538
0002c0 33 ba 2f 3d 6b c4 93 3d 3f 50 a4 3c 0d 98 3a 3d
       0.042902183 0.07215198 0.020057796 0.045555163
0002d0 53 f6 37 bc 2f 21 84 bd 57 0d c1 bc ca 85 8f bd
       -0.011228162 -0.06451642 -0.023565931 -0.0700794
0002e0 0c e2 25 bd f5 39 a4 3d 93 09 dc 3d bf e0 12 3c
       -0.04049878 0.08018867 0.10744014 0.008964716
0002f0 17 36 8a bd 8f 3a fb 3a 74 bd 56 3d b8 24 91 3c
       -0.06748598 0.0019167232 0.05242677 0.017717704
000300 4f e4 62 b9 af 7c ca bb 6c e2 22 3a fe e0 e2 bc
       -0.00021638091 -0.006179414 0.0006213549 -0.027695175
000310 72 ae ee bb 11 fd 92 3d bf 16 cd 3c a0 12 17 bc
       -0.007283979 0.07177175 0.02503526 -0.009220749
000320 42 df 5d 3e c7 85 73 3d 08 ea 18 be 53 fb ce 3c
       0.21667197 0.059453752 -0.14933026 0.025266325
000330 83 d9 14 3c 65 1f 8d bb ef b1 31 bd ef 72 79 bc
       0.009085062 -0.004306721 -0.04338258 -0.015225156
000340 90 87 f5 3d c3 a1 55 3d bc ff 03 bd 3a 53 80 3d
       0.11988747 0.05215622 -0.03222631 0.06265874
000350 18 7c 96 3c 8f da c4 3b f0 69 8e bc 49 71 8e 3c
       0.01836972 0.0060074995 -0.0173845 0.017388003
000360 e4 2c 40 3c b4 e2 98 3c 8a da 08 bd ba 87 45 bd
       0.011729453 0.018662788 -0.03341154 -0.048225142
000370 83 dd 1d bd 7e f5 8e bc a8 e7 12 bd 92 fa e8 ba
       -0.03854133 -0.017451044 -0.035865456 -0.0017774871
000380 18 e9 05 bc 42 e4 29 3b 63 d4 cb bc 4e 22 dd bd
       -0.00817325 0.0025923406 -0.024881547 -0.10797559
000390 64 d9 1a 3d b1 9f 27 3d af 66 3a 3c 2e 35 92 be
       0.037804976 0.040923778 0.011377021 -0.28556198
0003a0 34 61 7f 3d e4 86 1f ba cf 36 e1 3c 11 c2 9d 3c
       0.06234856 -0.0006085469 0.027491955 0.019257577
0003b0 5d b6 17 be a1 9d de 3b fb 64 8f 3c 74 b3 28 bc
       -0.1481566 0.006793693 0.017504206 -0.010296691
0003c0 73 83 6b 3c 1c 23 d3 bd 21 92 17 bd 63 fe a5 3c
       0.014374602 -0.10309431 -0.037004594 0.020262903
0003d0 c1 c7 e5 3d eb 2a 07 bd c5 7e 0f bb fb 7f 00 3e
       0.11219741 -0.032999914 -0.002189563 0.1254882
0003e0 8b 17 a2 bc 4f 26 65 3c e9 8b f1 3b f9 0a ef b8
       -0.019786617 0.013986184 0.007371415 -0.00011398452
0003f0 78 ee ea bd cd 96 3b 3d 6f 90 00 3e 7e dc eb 3d
       -0.114712656 0.04579811 0.12555097 0.11516665

shared.4.bias f4 [128]
000000 7f 33 13 3d fa 80 7a 3d bc 68 fd 3b 11 e9 cb 3c
       0.035937782 0.061158158 0.0077334326 0.024891408
000010 73 d6 15 3d 69 92 58 3c 6b bd b4 3b 75 91 c7 bc
       0.036581468 0.013218501 0.0055157444 -0.024361352
000020 36 ca 7f bd 2d cf f6 3c d4 54 22 b7 58 44 06 bd
       -0.062448703 0.030128086 -9.675703e-06 -0.03278002
000030 61 bf 58 3b ad dc ca bb a4 be 7c 3d 66 a0 72 bd
       0.0033073055 -0.0061908574 0.061705247 -0.059235
000040 e7 20 69 bd e0 af de 3c d0 f1 62 bd 3a e4 c5 bc
       -0.056916144 0.027183473 -0.05540639 -0.024156678
000050 8e 27 61 bd fa c9 55 bd ca 17 2d 3d 14 2b 4f 3c
       -0.054969363 -0.052194573 0.042259015 0.012644548
000060 54 db 24 3d 37 d8 5f bd 0c 7c 4b bd b6 78 4c 3d
       0.04024823 -0.054649558 -0.049678847 0.049919806
000070 91 ba 5c 3d f6 6d 77 bd e3 5c 4a 3d 59 50 90 bc
       0.05388886 -0.0604076 0.04940499 -0.017616438
000080 94 cf 57 bd 7b cf 33 3d 7c 98 93 bb 69 c1 50 3c
       -0.052688196 0.04389904 -0.0045042615 0.012741425
000090 5e c3 52 bd b3 9d 19 bd 8c a9 5e 3d ac 41 e5 bc
       -0.051455848 -0.03750391 0.05436091 -0.027985416
0000a0 d0 88 92 3c 40 89 fe 3c 54 3a 54 bb a9 d3 a7 bc
       0.017887503 0.031071305 -0.00323834 -0.02048667
0000b0 df 18 1f bd cf 65 2e 3d 30 45 67 3c 29 90 b8 bc
       -0.03884208 0.04257756 0.014115617 -0.022529678
0000c0 ad 39 89 3a bc 1d 6a 3d db 03 3f bd b2 68 c4 bc
       0.0010469459 0.057157263 -0.046634536 -0.023975704
0000d0 26 67 95 3d 02 58 1e 3b 6f 40 45 bb 99 d1 c2 3a
       0.07295065 0.0024161343 -0.003009822 0.001486349
0000e0 e7 3d 11 bd e1 7e 2d 3d 5c bb 46 3c 33 4b 9f bc
       -0.035459425 0.04235733 0.012129631 -0.019445037
0000f0 53 f3 33 bd ad 95 52 3d d0 ec 75 3d b7 85 4e 3c
       -0.043933224 0.051412273 0.060040295 0.012605122
000100 1f 89 39 3d 4e 21 1c bd ab 96 2f bd 18 4b d4 bc
       0.045296784 -0.0381177 -0.042868298 -0.025914714
000110 60 ad 44 3d 48 3e b1 bc c2 28 56 3d ed 7d 91 3c
       0.048016906 -0.021636143 0.052284963 0.017760241
000120 56 fb 55 3d 36 5e 21 bd 54 7c d8 bb e5 8a 43 bc
       0.052241646 -0.039396487 -0.006606618 -0.0119349705
000130 29 84 17 bd ce 8c 82 bb 19 0b c7 bc c6 9f 8e bc
       -0.036991272 -0.0039840704 -0.024297284 -0.01741017
000140 78 03 ce bb 30 a2 57 ba 87 b0 87 3c 1d 30 04 3d
       -0.0062870346 -0.0008225767 0.016563667 0.032272447
000150 4e c8 45 3d af 22 da 3c 15 ce b4 3b 63 1e 41 bc
       0.04828673 0.026627867 0.005517731 -0.01178703
000160 ec 5b 10 bc bb 4f 48 bd 24 81 3d 3d ab 88 13 bc
       -0.008810978 -0.048904162 0.046265736 -0.009004752
000170 8c 1b 81 3c 4b c8 ac bb 47 48 26 bc 80 bf 5d bd
       0.015760206 -0.0052729 -0.010149068 -0.054137707
000180 31 ec 44 bd 4b 5c 4b 3d 04 07 cc 3c d2 26 8c bc
       -0.048076812 0.049648564 0.024905689 -0.017108355
000190 3b a7 6d 3c 29 7f bd 3c fb b2 22 bc d3 50 2f bd
       0.014505203 0.023131924 -0.009930368 -0.04280169
0001a0 b8 2a 2c ba 21 2a 28 bd 21 45 51 3d 73 ac 42 3d
       -0.0006567645 -0.041055802 0.051091317 0.04752774
0001b0 ae d3 dc 3c 89 82 6e bd f7 26 c3 bc a2 2d 40 bd
       0.026956405 -0.058229957 -0.02382229 -0.04691852
0001c0 21 03 55 bd 33 6a b5 3c eb 3c 76 3d 79 cf 15 bd
       -0.052004937 0.022145366 0.06011669 -0.036574814
0001d0 c6 71 80 bd 29 e2 19 bd 9a 86 6b 3d 72 a0 f5 3a
       -0.062717006 -0.0375692 0.057501413 0.0018739833
0001e0 de b2 d8 3c e7 0f e8 3a 57 e1 24 3d a0 7b 17 bd
       0.026452478 0.0017704935 0.040253963 -0.036983132
0001f0 f0 54 5e 3d 8a ae 69 ba 75 d4 98 3c 73 e1 6b bd
       0.05428022 -0.0008914253 0.018655995 -0.057588052

shared.5.weight f4 [128]
000000 51 79 8c 3f 73 af 7b 3f 08 07 88 3f 22 8c 7c 3f
       1.0974523 0.9831459 1.0627146 0.98651326
000010 d9 07 82 3f de 8c 6c 3f aa c2 81 3f 56 75 7a 3f
       1.0158645 0.92402446 1.0137532 0.9783529
000020 ec fd 83 3f 9c 4b 80 3f d1 e7 7a 3f 4a 73 81 3f
       1.0311866 1.0023074 0.98009974 1.0113308
000030 97 05 80 3f c6 5f 7f 3f c6 7b 79 3f 60 05 7b 3f
       1.0001706 0.99755514 0.9745449 0.98055077
000040 c9 fe 82 3f e1 bf 7b 3f 35 03 85 3f bf c0 8c 3f
       1.0234004 0.9833966 1.0391604 1.0996321
000050 c6 73 7d 3f 25 67 7f 3f a7 81 7b 3f f6 95 81 3f
       0.9900478 0.9976676 0.9824471 1.012389
000060 7d 94 84 3f 2e dc 7b 3f 30 7e 7a 3f 64 13 91 3f
       1.0357815 0.9838284 0.97848797 1.1334043
000070 5e a8 8f 3f b2 98 7b 3f 40 07 82 3f 86 fa 7d 3f
       1.1223257 0.9827987 1.0158463 0.99210393
000080 75 35 7e 3f 64 91 82 3f 32 38 70 3f c2 42 80 3f
       0.9930032 1.020062 0.9383575 1.0020373
000090 12 c1 73 3f 1f 3c 81 3f 5d 9b 7b 3f ec a4 83 3f
       0.95216477 1.0096473 0.9828394 1.0284705
0000a0 ca f3 7f 3f 1a 61 81 3f c4 0b 7d 3f 0f 25 7b 3f
       0.9998137 1.0107758 0.9884608 0.9810342
0000b0 f5 4b 83 3f 1b 9c 7b 3f 18 0d 7b 3f be db 79 3f
       1.0257555 0.98285073 0.98066854 0.97600925
0000c0 b6 0c 82 3f ad 6c 7d 3f 90 a3 7b 3f d0 83 82 3f
       1.0160129 0.9899395 0.9829645 1.0196476
0000d0 a8 ae 8c 3f 56 98 80 3f 8c 4d 7c 3f 60 b3 7c 3f
       1.0990801 1.0046489 0.9855583 0.98711205
0000e0 74 20 8a 3f df 14 7c 3f b6 02 7a 3f eb b9 82 3f
       1.0791154 0.98469347 0.97660387 1.0212988
0000f0 3e e8 85 3f ce 1a 83 3f 37 0d 72 3f bb 98 7a 3f
       1.04615 1.0242555 0.94551414 0.978893
000100 af b6 8a 3f 96 a9 7a 3f 46 c7 78 3f dd 7b 7e 3f
       1.0837001 0.9791502 0.9717907 0.9940775
000110 01 62 86 3f 89 f5 82 3f 61 79 80 3f b3 38 7c 3f
       1.0498658 1.0231181 1.0037042 0.98524016
000120 b2 58 7b 3f f4 0a 7c 3f 65 9a 82 3f 38 37 80 3f
       0.98182213 0.98454213 1.0203367 1.0016851
000130 af 00 7a 3f 79 29 7e 3f cb ad 7c 3f 3b bb 79 3f
       0.97657293 0.9928203 0.9870269 0.97551316
000140 c7 b2 7a 3f 0a de 7c 3f be 48 71 3f ec f9 7e 3f
       0.9792904 0.98776305 0.9425162 0.996001
000150 83 2c 7e 3f bd 19 7c 3f 7b 8a 7b 3f 6c 2f 7f 3f
       0.9928667 0.98476774 0.9825818 0.99681735
000160 6e 2e 7f 3f 6a 97 71 3f b8 92 7f 3f ca b9 73 3f
       0.9968022 0.94371665 0.9983325 0.95205367
000170 65 50 79 3f b2 11 82 3f b4 9d 71 3f e3 44 74 3f
       0.973883 1.016165 0.9438126 0.9541761
000180 78 9c 7c 3f 4c 8a 80 3f 6a 0f 7c 3f 43 3a 7b 3f
       0.9867625 1.0042205 0.9846102 0.98135775
000190 31 37 7f 3f bf 04 72 3f fd e9 7b 3f 12 cc 84 3f
       0.9969359 0.9453849 0.9840391 1.0374777
0001a0 34 43 81 3f 9d 9a 7d 3f 4d 94 68 3f e4 9c 7b 3f
       1.0098634 0.99064046 0.9085129 0.9828627
0001b0 89 28 81 3f 55 c2 80 3f 29 03 81 3f 0e b0 89 3f
       1.0090495 1.0059305 1.0079089 1.0756853
0001c0 00 9e 7d 3f 0b 65 85 3f a0 35 81 3f f2 8e 7e 3f
       0.99069214 1.0421461 1.009449 0.9943687
0001d0 7c 55 7b 3f 6d 89 72 3f 76 a9 7c 3f 36 f3 81 3f
       0.98177314 0.94740945 0.98696077 1.0152347
0001e0 39 fe 81 3f 42 39 77 3f e3 29 81 3f bd 92 83 3f
       1.0155708 0.96571743 1.0090908 1.0279156
0001f0 97 4d 7e 3f 36 fd 7b 3f 9f 1a 80 3f 90 bf 6e 3f
       0.9933714 0.98433244 1.0008124 0.9326105

shared.5.bias f4 [128]
000000 3d 28 7f 3b 3b a5 85 bc 1c 66 9f bb 4c b8 1d bc
       0.0038933896 -0.01631414 -0.0048644673 -0.009626459
000010 e4 3f b9 bc 61 49 73 bd c5 52 50 bc b8 e9 bd bc
       -0.022613473 -0.05939615 -0.012715046 -0.023182735
000020 bd 90 79 bb 3e 76 11 bb 40 b2 42 bc da 9e 22 bb
       -0.0038080656 -0.0022195722 -0.011883318 -0.0024813921
000030 b0 37 fb bb bb c6 36 bc 35 05 81 bc a9 af 9c bc
       -0.0076665506 -0.0111557795 -0.015749553 -0.01912673
000040 f1 05 23 bc 18 4d d5 bc 32 6f 1f bd c1 7f 9d 3a
       -0.009950147 -0.026037738 -0.038924403 0.0012016223
000050 d1 e3 cc bb 50 80 74 bc 50 98 94 bc 05 8a 6c bc
       -0.006252744 -0.01492317 -0.018139035 -0.014437203
000060 6a af 86 bb b5 40 83 bc 3e b5 f8 bc fb e5 78 3b
       -0.0041102665 -0.016022066 -0.03035986 0.0037978876
000070 47 9a 6d bc 8c fd 84 bc 08 d7 18 bc a1 66 1d ba
       -0.014502115 -0.016234182 -0.009328611 -0.00060043676
000080 1b ed 9f bb 8c 7d f0 bc f5 68 21 bd 7e 20 4d bc
       -0.00488056 -0.02935674 -0.039406735 -0.012519954
000090 e0 05 c0 bb aa 20 04 bc ba 87 01 bc 01 43 a4 bb
       -0.0058600754 -0.008064428 -0.007905895 -0.0050128703
0000a0 72 fe 4e bc e1 04 5d bc b1 44 f5 bb da 7d fc bb
       -0.012633907 -0.013489933 -0.0074849953 -0.0077054324
0000b0 b9 9f 1d 3b 22 85 87 bc 91 96 94 bc 7c c6 87 bc
       0.00240515 -0.016542975 -0.018138202 -0.016574137
0000c0 11 9f a9 bb 3b 46 a9 bc 52 59 35 bc d8 96 51 bc
       -0.005176433 -0.020663371 -0.011068659 -0.012792312
0000d0 ab 86 9f 3b e3 aa b3 bb ce e0 8c bc 30 b3 02 bd
       0.0048683486 -0.005483018 -0.017197039 -0.031909168
0000e0 78 fb ef b9 32 5f 51 bc 78 ca b3 bc 57 f1 e6 bc
       -0.0004577299 -0.012779044 -0.02194713 -0.028191252
0000f0 82 2e 8b bc 32 9d 2c bd 99 d7 f2 bc 7f b7 61 bc
       -0.01698995 -0.0421421 -0.02964382 -0.013776659
000100 6e a0 e6 3b 6a 25 72 bc a1 06 f1 bb 98 ca ad bb
       0.0070381677 -0.014779428 -0.0073555266 -0.005303692
000110 e3 61 08 3a 2e 0c 76 bc dc b9 f8 ba 53 65 96 bc
       0.00052025745 -0.015017552 -0.0018976289 -0.018358862
000120 8e 82 b8 bc f8 2c ac bc 7d 22 16 bc da 3d 05 bc
       -0.02252319 -0.021017537 -0.009163496 -0.008132422
000130 55 b1 e8 bc b7 88 c2 bb fd 28 a5 bc b6 15 69 bc
       -0.028404871 -0.005936708 -0.020161146 -0.014226368
000140 51 44 2f bc d6 4e c3 bc e9 21 3c bd a0 ce e7 bb
       -0.01069744 -0.023841303 -0.045930777 -0.007074192
000150 b8 90 56 bc 91 49 0d ba 25 e5 b9 ba ea f9 b9 bc
       -0.013096027 -0.00053896854 -0.001418267 -0.022702176
000160 53 ce 87 bc fc 30 26 bd cc a4 f7 bb a6 a2 30 bd
       -0.016577875 -0.04057406 -0.007557487 -0.043123864
000170 0f b5 da bb 7d 70 61 bc f1 49 21 bd 11 17 f3 bc
       -0.006674416 -0.013759729 -0.039377157 -0.029674085
000180 99 8a 22 bc bc ed 89 bc 62 7e 3e bc b5 77 e7 bc
       -0.00992074 -0.016836993 -0.011626812 -0.028255323
000190 f5 b6 90 bb 80 c4 c2 bc 73 d0 ff bb bc 56 f6 bb
       -0.0044163414 -0.02377534 -0.0078068315 -0.0075176638
0001a0 fd 0b b7 ba a2 3d 9d bc 81 e4 33 bd 72 16 9b bc
       -0.0013965365 -0.019194428 -0.04391909 -0.018931601
0001b0 fa 13 30 bc 59 2e ec bb 17 d1 87 bb b9 50 e0 3a
       -0.01074695 -0.0072076735 -0.0041447985 0.0017113901
0001c0 0f 10 b4 bc 18 e6 f6 bb 65 cc ce bb e7 16 30 bc
       -0.021980314 -0.0075347535 -0.006310987 -0.010747648
0001d0 eb 05 79 bc 20 f0 dc bc 96 d0 09 bc 74 66 2b bc
       -0.015199165 -0.02696997 -0.008411547 -0.010461438
0001e0 bc 0b 46 38 b0 18 38 bc 25 07 d7 bb 1c d7 f2 ba
       4.7217807e-05 -0.011236355 -0.006562131 -0.0018527242
0001f0 b0 6f 67 bc 39 59 99 bc 71 44 8b bc f4 fc 4f bd
       -0.0141257495 -0.018719302 -0.017000409 -0.050778344
