predictor/models/simple_cost_predictor.pth (torch, 249900 bytes, 23 tensors)

shared.0.weight f4 [256, 1]
0	0xbf550c35	-0.8322175
1	0xbe9ff2ed	-0.31240025
2	0xbf4d9b2f	-0.80314916
3	0xbe95cb3e	-0.29256624
4	0xbe250ae4	-0.16117436
5	0x3ea02d4e	0.31284565
6	0x3f34bdb6	0.70601976
7	0x3f06a7cf	0.52599806
8	0xbcc4b72d	-0.024013126
9	0x3e09e466	0.13466033
10	0xbf1c89fb	-0.6114804
11	0x3df73f11	0.12072576
12	0x3f2de8d9	0.6793342
13	0xbf31592b	-0.69276685
14	0xbf088ab2	-0.5333663
15	0xbe93b5df	-0.28849694
16	0xbf62aa12	-0.88540757
17	0xbd90f738	-0.07078403
18	0xbf3453b6	-0.7044023
19	0x3f3f1254	0.7463734
20	0x3f3ad4e9	0.72981125
21	0xbe63cfae	-0.22247192
22	0x3e006638	0.12538993
23	0xbf4bdd60	-0.79634666
24	0x3f80bfb9	1.0058509
25	0x3eda36b0	0.42619848
26	0xbf67f037	-0.90600914
27	0xbedca0e9	-0.43091515
28	0x3f1b99af	0.6078138
29	0x3f68e681	0.9097672
30	0xbe01d7a0	-0.1267991
31	0x3e041d45	0.1290179
32	0xbe101e7f	-0.14074133
33	0x3f8024c6	1.0011222
34	0x3dc80e4f	0.09768354
35	0x3f5cdb66	0.86272275
36	0xbe4578ee	-0.19284412
37	0x3f83aa71	1.028639
38	0xbf623d46	-0.88374746
39	0xbe3bfa2f	-0.18357156
40	0x3f1a717b	0.6032941
41	0x3ebb51e9	0.3658593
42	0x3e47ebdc	0.19523567
43	0xbf83e75f	-1.0304984
44	0xbed540bc	-0.4165095
45	0xbda5273f	-0.08064126
46	0xbf81a7a1	-1.0129281
47	0x3dd7ed07	0.10543256
48	0x3f532620	0.8248005
49	0xbe6ac629	-0.22927155
50	0xbf0fb2c8	-0.56132174
51	0xbda8ec5a	-0.082482055
52	0x3ef68d64	0.48154747
53	0x3f6bd7c3	0.921261
54	0xbf45669b	-0.7710969
55	0x3e178cc7	0.14799796
56	0x3ef9688c	0.48712575
57	0x3ed1a0da	0.40943033
58	0x3d6b4a80	0.057444096
59	0x3f84a12e	1.0361688
60	0xbf162557	-0.58650726
61	0x3e9e16bd	0.30876723
62	0x3e170fcf	0.14752124
63	0x3f20e7ed	0.6285389
64	0x3efc8698	0.49321437
65	0x3f38feeb	0.72263974
66	0x3f220da5	0.6330207
67	0xbea52289	-0.3225291
68	0xbefa80cf	-0.48926398
69	0xbdbf37d9	-0.09336824
70	0x3f2957c2	0.6614953
71	0xbdf0a069	-0.11749346
72	0xbf6c710b	-0.9235999
73	0x3deb3321	0.114843614
74	0x3f3ed5a2	0.7454473
75	0xbf2c66a2	-0.67344105
76	0x3f6423d9	0.891172
77	0xbf46a237	-0.7759127
78	0x3e8f80ac	0.28027856
79	0xbd3be57e	-0.045873158
80	0xbe10f95b	-0.14157622
81	0x3d1a6e05	0.03770258
82	0x3f8b17a2	1.0866587
83	0xbf706965	-0.9391082
84	0x3e21e4ef	0.15809987
85	0xbf1262bd	-0.5718191
86	0xbeb4c75c	-0.3530835
87	0x3f695250	0.91141224
88	0xbf138262	-0.57620823
89	0x3f1de51d	0.61677724
90	0x3ee099c9	0.4386733
91	0x3f399ec9	0.7250791
92	0xbea094ab	-0.31363425
93	0xbe9efaa1	-0.3105059
94	0xbdcd9283	-0.100377105
95	0x3f4f7ec1	0.81052786
96	0xbe2623c0	-0.16224575
97	0x3dad1d52	0.08452858
98	0xbf278d67	-0.6545014
99	0xbd6cefed	-0.057846
100	0x3f81e525	1.0148054
101	0x3e2f118b	0.17096536
102	0x3ba6496b	0.00507467
103	0x3f6c32da	0.92265093
104	0xbcbfbdcd	-0.023405934
105	0xbeb055a9	-0.34440354
106	0xbc0718a9	-0.0082456255
107	0xbc842821	-0.016132416
108	0xbe05f95c	-0.13083404
109	0xbe62cde6	-0.22148857
110	0x3dfeed7d	0.12447641
111	0x3e1cf585	0.15328033
112	0x3f85eab8	1.0462255
113	0x3f7b3879	0.98133045
114	0x3f22fed6	0.636701
115	0x3f253c8a	0.645455
116	0x3e80e375	0.25173536
117	0x3f83d1b3	1.029837
118	0xbf083254	-0.53201795
119	0x3edd221c	0.43190086
120	0x3f6908b4	0.91028905
121	0xbf57b8ec	-0.84266543
122	0x3b4f5a77	0.0031639615
123	0xbf82f126	-1.0229843
124	0xbd58de74	-0.052946523
125	0x3f83a1c6	1.0283744
126	0x3f41676f	0.7554845
127	0xbf7b2291	-0.9809962
128	0xbea9763d	-0.3309802
129	0x3f2f077c	0.68370795
130	0xbda56775	-0.080763735
131	0xbf41c3a2	-0.75689137
132	0xbe6aff70	-0.22949004
133	0xbf7277dc	-0.9471414
134	0xbf45a389	-0.7720266
135	0x3f370a5a	0.7150017
136	0xbebb1ee1	-0.36546996
137	0xbf230b57	-0.6368918
138	0x3ecfbe5b	0.40574917
139	0xbf31193f	-0.6917915
140	0x3eda73df	0.42666528
141	0xbf1f1ce1	-0.6215344
142	0xbf2a0437	-0.6641268
143	0xbe0dfd4d	-0.13866158
144	0x3f47c0aa	0.7802836
145	0x3e42afeb	0.1901242
146	0xbf207cbe	-0.6269034
147	0xbe83d569	-0.25748757
148	0xbef6d009	-0.48205593
149	0xbdf0b620	-0.117534876
150	0x3f0b622e	0.54446685
151	0x3f6e7307	0.9314427
152	0xbf064336	-0.52446306
153	0xbed45f10	-0.41478777
154	0x3f2afe07	0.66793865
155	0xbf012b39	-0.5045658
156	0xbea7c464	-0.32767022
157	0x3f7d28f2	0.988906
158	0xbf26441d	-0.6494768
159	0xbf092184	-0.53566766
160	0xbef908b4	-0.48639452
161	0xbf523739	-0.82115513
162	0x3eaa8d01	0.33310702
163	0xbe8daaf0	-0.27669477
164	0x3dc20070	0.0947274
165	0x3ec568e7	0.38556597
166	0xbf1c30fc	-0.61012244
167	0xbf23137f	-0.63701624
168	0xbf033be8	-0.51263285
169	0x3f078bc0	0.52947617
170	0x3f5f4d9b	0.8722779
171	0xbf0730c2	-0.52808774
172	0x3e669b3a	0.22520152
173	0xbe9fef62	-0.31237322
174	0xbf2a1962	-0.6644498
175	0x3f6a1b1b	0.9144761
176	0x3f7aa82a	0.9791285
177	0xbeb8962c	-0.36052072
178	0x3f243e8a	0.6415793
179	0x3f8e1fe7	1.1103486
180	0xbf7432e2	-0.9539014
181	0x3f5906a8	0.8477578
182	0xbf7401c0	-0.9531517
183	0xbd20f583	-0.03929664
184	0x3eed0632	0.4629379
185	0xbf1c8f81	-0.6115647
186	0xbf6713b5	-0.90264446
187	0xbe404e6d	-0.18779917
188	0xbf81a7df	-1.0129355
189	0xbe47b873	-0.19503956
190	0xbeb429ba	-0.35188085
191	0xbf2079df	-0.6268596
192	0x3f2ccd2e	0.6750058
193	0x3f041df7	0.5160822
194	0xbdb8715b	-0.09005996
195	0xbef5c234	-0.47999728
196	0xbe5a8d13	-0.21342878
197	0x3f2e4535	0.6807435
198	0x3f5a070e	0.85167015
199	0xbf7a7ac6	-0.9784359
200	0x3f6a0e16	0.91427743
201	0xbf3028a9	-0.6881204
202	0x3db258b9	0.08708329
203	0xbf54edcf	-0.8317537
204	0x3d551b21	0.052027825
205	0xbebf3f11	-0.37352803
206	0xbedcbefe	-0.43114465
207	0xbf050855	-0.5196584
208	0x3e1f16ac	0.15535992
209	0xbccedf8d	-0.025253082
210	0xbe4be0ba	-0.19909945
211	0x3f1e88a6	0.6192726
212	0x3f6eb3dc	0.93243194
213	0xbe19a481	-0.1500416
214	0x3f2a16ea	0.66441214
215	0x3deb5e6a	0.114926174
216	0x3decc9b1	0.11561907
217	0x3ef5c237	0.47999737
218	0xbf3ee9d4	-0.74575543
219	0x3e949621	0.2902079
220	0xbf124cf7	-0.5714869
221	0x3f5658ce	0.83729255
222	0x3f8328dd	1.0246845
223	0xbf644408	-0.8916631
224	0xbe9af724	-0.30266678
225	0x3f02e09f	0.51123995
226	0x3c887df3	0.01666162
227	0xbf17ba3c	-0.59268546
228	0x3f53ed67	0.8278412
229	0x3e8654a3	0.26236448
230	0x3eb9e46d	0.36307088
231	0x3f5094fd	0.8147734
232	0xbf0a419c	-0.5400636
233	0xbebc0090	-0.3671918
234	0xbe8b747f	-0.27237317
235	0x3edf0521	0.435586
236	0xbf15ea3f	-0.58560556
237	0xbf20b420	-0.6277485
238	0xbf6799f5	-0.90469295
239	0x3dbfb1ad	0.09360061
240	0xbf664b64	-0.89958787
241	0xbf80a058	-1.0048933
242	0x3e21b2ac	0.15790814
243	0x3f7dab6d	0.990897
244	0xbe8e71dd	-0.27821246
245	0x3ed42c5a	0.41440088
246	0xbf6b8b1c	-0.9200914
247	0xbf82d689	-1.0221721
248	0x3f52b19c	0.8230226
249	0x3ed3153b	0.41227135
250	0x3e8baac9	0.27278736
251	0x3ea912c8	0.3302214
252	0x3f5b55fd	0.8567808
253	0xbf793112	-0.973405
254	0xbecb543f	-0.39712712
255	0xbea4ef46	-0.322138

shared.0.bias f4 [256]
0	0x3ea7f0f8	0.32801032
1	0xbf10598c	-0.5638664
2	0x3f0ee29f	0.55814546
3	0x3d43c0e4	0.047791377
4	0x3e873cee	0.26413673
5	0xbda3da69	-0.08000643
6	0x3e9c0d55	0.30478922
7	0xbef80875	-0.48443952
8	0xbe38b52c	-0.18037862
9	0x3f12bfb4	0.57323766
10	0x3e37934e	0.17927286
11	0xbe86d51d	-0.26334468
12	0x3f1a7edf	0.6034984
13	0xbf1ba01a	-0.6079117
14	0xbf1cb75c	-0.61217284
15	0x3f100493	0.5625698
16	0x3eef50c0	0.46741295
17	0xbe81d83a	-0.2536028
18	0xbd4ff2a8	-0.050768524
19	0xbdb6fe5d	-0.08935235
20	0xbd3f4b00	-0.046702385
21	0x3f2e26b4	0.68027806
22	0xbd3a8e16	-0.04554566
23	0xbe9140e1	-0.2836981
24	0x3f35ff40	0.71092606
25	0x3f4cb5e1	0.79965025
26	0x3f4b35aa	0.7937876
27	0x3f57c91d	0.8429125
28	0x3e19696a	0.14981619
29	0x3f46d785	0.77672607
30	0xbedfd269	-0.43715218
31	0xbf29d0e5	-0.6633437
32	0x3eecb1d3	0.4622942
33	0xbf28a10d	-0.65870744
34	0x3d87cd2e	0.06630932
35	0x3e370622	0.17873433
36	0xbf370521	-0.714922
37	0x3f6d9187	0.9280018
38	0xbf17afc5	-0.5925258
39	0xbe556e9a	-0.20842972
40	0x3f5373c8	0.82598543
41	0xbf104d12	-0.563676
42	0xbf1c0837	-0.60950035
43	0xbf60aa37	-0.8775973
44	0xbf1a3a1c	-0.6024492
45	0xbeac5c1e	-0.3366403
46	0xbf2812b5	-0.65653545
47	0x3eb66081	0.35620502
48	0x3f72828b	0.9473044
49	0x3e3ad488	0.18245137
50	0xbe4e2b26	-0.20133647
51	0x3eabd3eb	0.33560118
52	0x3e00966d	0.12557383
53	0xbe24cb74	-0.16093236
54	0x3f05062d	0.5196255
55	0xbf31639b	-0.6929261
56	0xbe1ae242	-0.15125373
57	0xbf4166ba	-0.75547373
58	0xbeb0f1a8	-0.3455937
59	0x3f581b63	0.8441679
60	0x3e826c66	0.25473326
61	0x3e4f85f0	0.20265937
62	0x3ebeefcf	0.37292334
63	0xbdd95df9	-0.10613627
64	0x3ebe659a	0.3718689
65	0x3e955ec3	0.2917386
66	0x3f616403	0.8804323
67	0xbe616c68	-0.2201401
68	0x3f439cdc	0.76411223
69	0x3d86add3	0.06576123
70	0xbf32270f	-0.6959085
71	0x3ec68a96	0.38777608
72	0x3e124e40	0.14287663
73	0x3f30289c	0.68811965
74	0xbe84ff5d	-0.25976077
75	0x3e2eeec3	0.17083268
76	0x3f3fa644	0.74863076
77	0x3f1fec26	0.6246971
78	0xbf1e1b93	-0.61760825
79	0xbf4edc27	-0.80804676
80	0x3edf725a	0.4364193
81	0xbedf4ccc	-0.4361328
82	0xbf509bb6	-0.81487596
83	0xbee985f4	-0.4561001
84	0xbdfff99c	-0.12498781
85	0xbf31a24a	-0.6938826
86	0xbe8575fb	-0.26066574
87	0x3f597e40	0.8495827
88	0x3f22d0f4	0.6360009
89	0x3f4db5dc	0.8035562
90	0x3ebe6811	0.3718877
91	0xbe80af1f	-0.25133607
92	0xbf0be930	-0.5465269
93	0x3e84dad5	0.25948206
94	0x3ea3e11e	0.32007688
95	0xbf58c0a4	-0.84668946
96	0xbda25859	-0.07927007
97	0x3eb8526c	0.36000383
98	0xbf418f74	-0.7560952
99	0xbf432208	-0.762238
100	0xbf3f152d	-0.74641687
101	0x3e6ec415	0.23316987
102	0xbeb8e827	-0.36114618
103	0xbe220a27	-0.15824185
104	0xbf5665f5	-0.83749324
105	0xbd210e2c	-0.039320156
106	0xbf0c5087	-0.54810375
107	0xbdf22b6b	-0.118246876
108	0xbc84d751	-0.016215952
109	0x3e4d57ef	0.20053075
110	0x3f3e273a	0.74278605
111	0x3f75e6f7	0.9605555
112	0xbf433db5	-0.7626603
113	0x3ed60e5b	0.41807827
114	0x3f03224a	0.51224196
115	0xbdb499b4	-0.08818379
116	0xbf2f84b4	-0.68561864
117	0x3f017aa7	0.5057778
118	0xbefd2d17	-0.49448463
119	0xbf3bc746	-0.7335094
120	0xbf30a891	-0.6900721
121	0xbe4be84f	-0.19912837
122	0x3f40bfa7	0.7529244
123	0xbd6b3287	-0.057421234
124	0xbf33e04a	-0.7026411
125	0x3f5df2e0	0.8669872
126	0xbe0f3826	-0.13986263
127	0xbea5bb61	-0.3236952
128	0x3eeb39ad	0.4594244
129	0xbdb8ec80	-0.09029484
130	0xbea04e5d	-0.31309786
131	0xbeec6598	-0.4617126
132	0xbea61094	-0.32434523
133	0xbf598f26	-0.8498405
134	0x3f605c0b	0.87640446
135	0x3f6821f3	0.906768
136	0xbf3256a5	-0.6966346
137	0xbf45b139	-0.77223545
138	0x3ddf54f5	0.10904876
139	0x3c72ae86	0.014812117
140	0x3f3d80f5	0.740249
141	0x3f642689	0.891213
142	0xbf0a94ff	-0.541336
143	0x3ee1a468	0.44070745
144	0xbddc15e8	-0.10746366
145	0xbf422404	-0.75836205
146	0xbeb58c86	-0.35458773
147	0x3f34ccb3	0.70624846
148	0x3ed6dc89	0.4196513
149	0xbe8a2b56	-0.26986188
150	0x3e07b434	0.13252336
151	0xbf3f313a	-0.7468449
152	0x3e229192	0.15875843
153	0xbea5f831	-0.32415918
154	0x3f0189cf	0.50600904
155	0xbde1ada3	-0.11019447
156	0xbe58d3ca	-0.21174541
157	0xbee63ca2	-0.44968134
158	0xbf490713	-0.7852642
159	0x3e83dd95	0.2575499
160	0xbd01d9a6	-0.031701706
161	0xbf14c194	-0.58107877
162	0x3f0e285a	0.5553032
163	0x3ea9435f	0.33059213
164	0xbf1e765a	-0.6189934
165	0x3ea9042c	0.33010995
166	0xbed9eb61	-0.42562392
167	0x3f05c4cc	0.52253413
168	0xbea5a132	-0.32349545
169	0x3f0e8534	0.55672
170	0xbf141b8d	-0.5785454
171	0xbf30d310	-0.69072056
172	0x3f48f458	0.7849784
173	0x3f50045c	0.8125665
174	0x3f52b03e	0.82300174
175	0xbdbc28be	-0.091874585
176	0xbf37c73f	-0.717884
177	0xbf55a4cc	-0.83454585
178	0x3e86975d	0.26287356
179	0xbf5b9957	-0.85780853
180	0xbf432a85	-0.76236755
181	0x3e54d264	0.20783383
182	0x3f24be94	0.643533
183	0x3e5eb42d	0.21748419
184	0xbe7026d6	-0.23452315
185	0x3f618d01	0.8810578
186	0x3f3f33db	0.746885
187	0xbde0f70b	-0.1098462
188	0xbe787359	-0.24262752
189	0xbea4bfdb	-0.32177624
190	0x3ece8a9a	0.4034012
191	0xbd5dea06	-0.05417826
192	0xbe3b290e	-0.1827738
193	0x3df200cc	0.11816558
194	0xbd3bd29b	-0.045855146
195	0xbea86fbd	-0.3289775
196	0xbeaf77eb	-0.34271178
197	0xbf0afe45	-0.54294235
198	0x3eddb51a	0.43302232
199	0xbedf75d0	-0.4364457
200	0xbdb5c080	-0.08874607
201	0x3d1be1d5	0.038057167
202	0xbd2def58	-0.042464584
203	0x3ee640cf	0.4497132
204	0xbf19c5ee	-0.6006764
205	0xbeead545	-0.45865837
206	0xbe957264	-0.29188836
207	0x3f3a5184	0.7278063
208	0x3e8aa12f	0.27076098
209	0xbf1817cb	-0.59411305
210	0xbf54293b	-0.8287541
211	0xbde2af24	-0.11068562
212	0x3ed4fe4f	0.41600272
213	0xbdb321ab	-0.08746656
214	0xbe6d7133	-0.23187713
215	0x3ead406c	0.33838212
216	0x3e04b5b6	0.12959942
217	0x3f771c44	0.96527505
218	0xbe7f702e	-0.24945137
219	0x3f213995	0.6297849
220	0xbd095a43	-0.033533346
221	0x3f2b3eca	0.66892684
222	0x3f74dbf9	0.9564815
223	0xbee5e06e	-0.4489779
224	0x3ec37d95	0.3818175
225	0xbe285288	-0.16437733
226	0xbf3980be	-0.7246207
227	0xbe594a51	-0.21219756
228	0x3ec00656	0.37504834
229	0xbf3c5f15	-0.73582584
230	0xbd867e83	-0.06567099
231	0x3f599759	0.84996563
232	0x3ef53031	0.4788833
233	0x3e99a0a5	0.30005375
234	0x3f34f790	0.7069025
235	0x3f3ce580	0.7378769
236	0x3f2b2f91	0.66869456
237	0xbdb714b7	-0.08939498
238	0xbef3d842	-0.4762593
239	0xbf3a0239	-0.7265964
240	0xbd2aabad	-0.04166763
241	0xbf3d7cd4	-0.740186
242	0x3f610dd5	0.8791173
243	0xbf4412dc	-0.7659128
244	0xbe21c423	-0.15797476
245	0x3ef5c225	0.47999683
246	0x3e71fee9	0.23632397
247	0xbeb69092	-0.35657173
248	0x3ebc86bd	0.36821547
249	0x3effea54	0.49983466
250	0xbf1ecc62	-0.62030613
251	0x3f792acd	0.97330934
252	0x3f43de7e	0.7651137
253	0xbf11693f	-0.5680122
254	0xbe749a69	-0.23887028
255	0xbe633feb	-0.22192352

shared.1.weight f4 [256]
0	0x3f7daa54	0.99088025
1	0x3f7ff515	0.9998334
2	0x3f7992b0	0.9748945
3	0x3f802a8e	1.0012987
4	0x3f7c285d	0.9849909
5	0x3f84c8df	1.0373801
6	0x3f84c042	1.0371172
7	0x3fd8d707	1.6940621
8	0x3f7ff515	0.9998334
9	0x3f72e978	0.94887495
10	0x3f819998	1.0124998
11	0x3f7ff515	0.9998334
12	0x3f763470	0.96173763
13	0x3fb31dd9	1.3993484
14	0x3f7ff515	0.9998334
15	0x3f797eee	0.97459304
16	0x3f7adee0	0.9799633
17	0x3f7ff515	0.9998334
18	0x3f86e794	1.0539422
19	0x3f88a7c2	1.0676196
20	0x3f824a80	1.0178986
21	0x3f74f80a	0.9569098
22	0x3f8de5b5	1.1085726
23	0x3f9ed44c	1.2408538
24	0x3f76e2ae	0.96439636
25	0x3f717151	0.9431353
26	0x3f796a2b	0.97427624
27	0x3f738b0c	0.95134044
28	0x3f843bca	1.0330746
29	0x3f779e9c	0.96726394
30	0x3f7ff515	0.9998334
31	0x3f7ff515	0.9998334
32	0x3f7a4e50	0.97775745
33	0x3f992404	1.1964116
34	0x3f81e18f	1.014696
35	0x3f84a5f3	1.0363144
36	0x3f7ff515	0.9998334
37	0x3f734ba5	0.950373
38	0x3f97285e	1.1809194
39	0x3f7ff515	0.9998334
40	0x3f771e34	0.9653046
41	0x3f7ff515	0.9998334
42	0x3f7ff515	0.9998334
43	0x3fa0f270	1.2573986
44	0x3f7ff515	0.9998334
45	0x3f7ff515	0.9998334
46	0x3f92c0f1	1.1465131
47	0x3f7b46cb	0.98154896
48	0x3f750c1a	0.9572159
49	0x3f7d3c63	0.9892027
50	0x3fa7ec48	1.3118982
51	0x3f777079	0.96655995
52	0x3f816597	1.0109128
53	0x3f892c07	1.0716561
54	0x3f7ac7d9	0.97961193
55	0x3f7ff515	0.9998334
56	0x3f83ecbb	1.030662
57	0x3f7ff515	0.9998334
58	0x3f7ff515	0.9998334
59	0x3f7663df	0.9624614
60	0x3f7c6465	0.9859069
61	0x3f7eee81	0.9958268
62	0x3f78d549	0.9720045
63	0x3f88ce26	1.0687912
64	0x3f7cfd22	0.9882375
65	0x3f882fa7	1.0639542
66	0x3f6fbb49	0.9364515
67	0x3f9bafa2	1.2162974
68	0x3f74e254	0.9565785
69	0x3f80e2a0	1.006916
70	0x3f7ff515	0.9998334
71	0x3f796ee7	0.9743485
72	0x3f7f92eb	0.99833554
73	0x3f731007	0.9494633
74	0x3f881d42	1.0633929
75	0x3f80467f	1.0021514
76	0x3f77b252	0.9675647
77	0x3f7a9b66	0.9789337
78	0x3f7ff515	0.9998334
79	0x3f7ff515	0.9998334
80	0x3f7a9d2b	0.9789607
81	0x3f7ff515	0.9998334
82	0x3fad6cd2	1.3548834
83	0x3f816d62	1.0111506
84	0x3f7de52c	0.99177814
85	0x3f7ff515	0.9998334
86	0x3f859ea7	1.0439042
87	0x3f760623	0.96103114
88	0x3f75a9f7	0.9596247
89	0x3f7141a9	0.94240814
90	0x3f7c3bf6	0.98528993
91	0x3f8b5023	1.0883831
92	0x3f7ff515	0.9998334
93	0x3f7e6ea2	0.9938756
94	0x3f7b05c4	0.9805567
95	0x3f7ff515	0.9998334
96	0x3f816edd	1.0111958
97	0x3f76da53	0.96426886
98	0x3f7ff515	0.9998334
99	0x3f7ff515	0.9998334
100	0x3fa9c0d1	1.3261968
101	0x3f7c5ea9	0.9858194
102	0x3f7ff515	0.9998334
103	0x3f89c678	1.0763693
104	0x3f7ff515	0.9998334
105	0x3f90d0ce	1.1313722
106	0x3f7ff515	0.9998334
107	0x3f7ff515	0.9998334
108	0x3f8c72ab	1.0972494
109	0x3f7ab5df	0.97933763
110	0x3f7559ac	0.95839953
111	0x3f751f46	0.95750844
112	0x3faba2e2	1.3409083
113	0x3f87e6da	1.0617325
114	0x3f7acdcf	0.9797029
115	0x3f886edc	1.0658832
116	0x3f7ff515	0.9998334
117	0x3f7b3d28	0.9814019
118	0x3f78321e	0.9695147
119	0x3f7ff515	0.9998334
120	0x3fb74593	1.4318107
121	0x3f8c5818	1.0964384
122	0x3f733772	0.9500648
123	0x3f83b293	1.0288872
124	0x3f7ff515	0.9998334
125	0x3f75dee4	0.9604323
126	0x3f8a0734	1.0783448
127	0x3f978dc0	1.1840134
128	0x3f76dbf5	0.9642938
129	0x3f886e85	1.0658728
130	0x3f7ff515	0.9998334
131	0x3f933d80	1.1503143
132	0x3f7ff515	0.9998334
133	0x3fb0b2b4	1.3804536
134	0x3f79252f	0.9732236
135	0x3f7515f1	0.95736605
136	0x3f7ff515	0.9998334
137	0x3f7ff515	0.9998334
138	0x3f823198	1.0171385
139	0x3f83a0d9	1.0283462
140	0x3f76748a	0.96271574
141	0x3f73a044	0.9516642
142	0x3fb1bd0f	1.3885821
143	0x3f7841b7	0.9697527
144	0x3f874e25	1.0570723
145	0x3f7ff515	0.9998334
146	0x3f85a74b	1.0441679
147	0x3f74873d	0.9551886
148	0x3f7b6466	0.9820007
149	0x3f7ff515	0.9998334
150	0x3f80bc8d	1.0057541
151	0x3fbf67f8	1.4953604
152	0x3f812101	1.0088197
153	0x3fa3fb23	1.2811016
154	0x3f7e4e16	0.993379
155	0x3f89296e	1.0715768
156	0x3f9b3690	1.2126026
157	0x3f86e67f	1.0539092
158	0x3f7ff515	0.9998334
159	0x3f7b698b	0.9820792
160	0x3f86cd52	1.0531409
161	0x3f9a4a73	1.205397
162	0x3f758505	0.95906097
163	0x3f7b2808	0.9810796
164	0x3f7ff515	0.9998334
165	0x3f7dfc12	0.99212754
166	0x3fa87577	1.3160847
167	0x3f7ac619	0.97958523
168	0x3f9ab0c6	1.2085197
169	0x3f758ab4	0.9591477
170	0x3fa1ba34	1.263495
171	0x3f7ff515	0.9998334
172	0x3f755757	0.95836395
173	0x3f7672d5	0.9626897
174	0x3f770da3	0.96505183
175	0x3f82fa4a	1.0232632
176	0x3fa77e7a	1.3085473
177	0x3f7ff515	0.9998334
178	0x3f85465e	1.0412099
179	0x3fb6cb1b	1.4280733
180	0x3fac5161	1.3462335
181	0x3f848905	1.0354315
182	0x3f79d4a9	0.9759012
183	0x3f7ab168	0.9792695
184	0x3f92271e	1.1418188
185	0x3f72394d	0.94618684
186	0x3f78af18	0.9714217
187	0x3f98d35f	1.1939505
188	0x3f88d765	1.0690733
189	0x3f7ff515	0.9998334
190	0x3f7c925b	0.9866082
191	0x3f8ae03a	1.0849679
192	0x3f80ecc0	1.007225
193	0x3f867880	1.0505524
194	0x3f947d51	1.1600744
195	0x3fa66f94	1.3002801
196	0x3f7ff515	0.9998334
197	0x3fc63d83	1.5487522
198	0x3f7d4d93	0.98946494
199	0x3f8331a5	1.0249525
200	0x3f871d8c	1.0555892
201	0x3f81e0cf	1.0146731
202	0x3f844db5	1.0336214
203	0x3f7ce989	0.98793846
204	0x3f7ff515	0.9998334
205	0x3f7ff515	0.9998334
206	0x3fab00b6	1.3359592
207	0x3f756a16	0.95865
208	0x3f7a706a	0.9782778
209	0x3f7ff515	0.9998334
210	0x3f7ff515	0.9998334
211	0x3f8761ad	1.0576683
212	0x3f838313	1.0274376
213	0x3f91478e	1.1349962
214	0x3f87e403	1.0616459
215	0x3f7a7cbd	0.97846586
216	0x3f7a1bed	0.9769886
217	0x3f7532dc	0.9578073
218	0x3fa55fba	1.2919838
219	0x3f72dab0	0.9486494
220	0x3f83e9f6	1.0305774
221	0x3f7861d7	0.9702429
222	0x3f7434c5	0.9539302
223	0x3f837ddb	1.0272783
224	0x3f799e04	0.9750674
225	0x3f89def2	1.0771163
226	0x3f7ff515	0.9998334
227	0x3f95c672	1.1701186
228	0x3f80f042	1.0073321
229	0x3f7ff515	0.9998334
230	0x3f8d46c7	1.1037225
231	0x3f72b288	0.9480367
232	0x3f7ba6b5	0.9830125
233	0x3f7e3ca5	0.99311286
234	0x3f74fbda	0.95696795
235	0x3f7761a4	0.9663336
236	0x3f7784e3	0.96687144
237	0x3f862c7a	1.0482323
238	0x3f83ade0	1.0287437
239	0x3f7ff515	0.9998334
240	0x3f84deef	1.0380534
241	0x3f9ba5e4	1.2160001
242	0x3f751adc	0.9574411
243	0x3fb52205	1.4151007
244	0x3f89666b	1.073438
245	0x3f79fd64	0.9765227
246	0x3f7fb82a	0.9989039
247	0x3f9ef314	1.2417932
248	0x3f8322f0	1.0245037
249	0x3f7bd28d	0.9836815
250	0x3f7ff515	0.9998334
251	0x3f741a6f	0.95352834
252	0x3f76e1e3	0.96438426
253	0x3f877c00	1.0584717
254	0x3f8ae170	1.0850048
255	0x3f8e8028	1.113286

shared.1.bias f4 [256]
0	0xbd4cc10d	-0.049988795
1	0x00000000	0.0
2	0xbca03c6e	-0.019560065
3	0x3c98867b	0.018618813
4	0xbcb87f5d	-0.022521669
5	0xbc6a5597	-0.014302633
6	0xbc512ae2	-0.012766572
7	0x3cca3ee6	0.024688195
8	0x00000000	0.0
9	0xbd565172	-0.052323766
10	0xbd0f9312	-0.035052367
11	0x00000000	0.0
12	0xbd50119f	-0.050798055
13	0x3d260716	0.0405341
14	0x00000000	0.0
15	0xbcf3cd99	-0.029761123
16	0xbcd30109	-0.02575733
17	0x00000000	0.0
18	0xbbb37830	-0.005476974
19	0xbbe6e582	-0.0070464024
20	0xbd0951a9	-0.033525143
21	0xbd5bee9f	-0.053694364
22	0x3ca67bb3	0.020322656
23	0x3d523138	0.05131647
24	0xbd6c63f3	-0.057712507
25	0xbd8d6ec1	-0.0690589
26	0xbc3ac214	-0.011398811
27	0xbd8a2ffc	-0.067474335
28	0x3c528d66	0.012851095
29	0xbd4f44e9	-0.050602827
30	0x00000000	0.0
31	0x00000000	0.0
32	0xbd0a1165	-0.033707995
33	0xbb64b961	-0.0034900534
34	0x3a0c91c3	0.00053622964
35	0x3da5a76d	0.080885746
36	0x00000000	0.0
37	0xbd98e925	-0.07466344
38	0x3da0f3cd	0.07859001
39	0x00000000	0.0
40	0xbd426edd	-0.04746901
41	0x00000000	0.0
42	0x00000000	0.0
43	0x3c93c949	0.018040316
44	0x00000000	0.0
45	0x00000000	0.0
46	0x3d9ffc18	0.07811755
47	0xbcd9662f	-0.026537983
48	0xbd84bcf3	-0.06481352
49	0x3bd3655f	0.0064512934
50	0x3d363cde	0.04449164
51	0xbd0688f2	-0.032845445
52	0xbab4f772	-0.0013806655
53	0x3cdff240	0.027337193
54	0xbc107bf4	-0.008818615
55	0x00000000	0.0
56	0xbbe8c54d	-0.007103598
57	0x00000000	0.0
58	0x00000000	0.0
59	0xbd850356	-0.06494777
60	0xbd043cf3	-0.03228469
61	0xbcd043b6	-0.025422912
62	0xbcb08115	-0.021545926
63	0x3c96269b	0.018328955
64	0xbd235186	-0.03987267
65	0x3ccdb58b	0.02511098
66	0xbd8f1a6a	-0.0698746
67	0x3d9272b9	0.07150788
68	0xbd84a697	-0.06477087
69	0x3be96583	0.007122697
70	0x00000000	0.0
71	0xbd13d580	-0.03609228
72	0xbd1685ad	-0.036748577
73	0xbd7ec5a8	-0.06220022
74	0x3d06fb3e	0.032954447
75	0x3be335ff	0.006933927
76	0xbd49f4ac	-0.049305603
77	0x3c926d00	0.01787424
78	0x00000000	0.0
79	0x00000000	0.0
80	0xbd011083	-0.031509887
81	0x00000000	0.0
82	0x3d97872f	0.07398831
83	0xbcfee849	-0.031116622
84	0xbcdb9032	-0.026802156
85	0x00000000	0.0
86	0x3acae53e	0.0015479696
87	0xbd809628	-0.0627864
88	0xbd59d8fb	-0.053185444
89	0xbd389852	-0.04506714
90	0xbd33c1ea	-0.043886103
91	0x3cfba60d	0.030718828
92	0x00000000	0.0
93	0xbbfed8cd	-0.0077773095
94	0xbcaa0d33	-0.020758247
95	0x00000000	0.0
96	0xbd00982d	-0.031395126
97	0xbcdb9d16	-0.026808303
98	0x00000000	0.0
99	0x00000000	0.0
100	0x3d835f89	0.06414706
101	0xbcbcca6a	-0.023045737
102	0x00000000	0.0
103	0x3cad5a27	0.021161152
104	0x00000000	0.0
105	0x3d0b722f	0.03404444
106	0x00000000	0.0
107	0x00000000	0.0
108	0x3cb41b49	0.021985667
109	0xbc2cd091	-0.010547773
110	0xbd45e758	-0.04831633
111	0xbd404403	-0.04693986
112	0x3d922868	0.07136613
113	0xbc2b4542	-0.010453524
114	0xbd4ee65d	-0.05051266
115	0xbcc18d0f	-0.023626832
116	0x00000000	0.0
117	0xbd8f6f2e	-0.07003628
118	0xbd414f72	-0.047194906
119	0x00000000	0.0
120	0x3dc59ddb	0.09649249
121	0xbc6f95a1	-0.014623077
122	0xbd5adc08	-0.053432494
123	0xbd35a27c	-0.04434441
124	0x00000000	0.0
125	0xbd93273a	-0.07185216
126	0x3d2a36ad	0.04155605
127	0x3ae8405c	0.0017719376
128	0xbd5feaf1	-0.054667417
129	0xbcc09356	-0.023507755
130	0x00000000	0.0
131	0x3d382dd4	0.04496558
132	0x00000000	0.0
133	0x3cf06e95	0.029349605
134	0xbd444dca	-0.047925748
135	0xbd6159a1	-0.055017117
136	0x00000000	0.0
137	0x00000000	0.0
138	0xbbc5d5fa	-0.006037471
139	0xbd090cde	-0.033459537
140	0xbd234836	-0.039863788
141	0xbd89d550	-0.06730139
142	0x3d59d4aa	0.053181328
143	0xbd23cb19	-0.03998861
144	0xbcfb86df	-0.03070396
145	0x00000000	0.0
146	0xbc621885	-0.013799791
147	0xbd6c4d28	-0.05769077
148	0xbcf6fa0e	-0.030148532
149	0x00000000	0.0
150	0x3c7a3642	0.015271725
151	0x3d42b485	0.047535438
152	0xbcbbd806	-0.022930156
153	0x3d958105	0.07299999
154	0xbc37ea7b	-0.011225338
155	0x3ae8aa5f	0.001775097
156	0x3d45ddbd	0.04830717
157	0xbce7e58d	-0.0283077
158	0x00000000	0.0
159	0xbc986288	-0.01860167
160	0xbbee8790	-0.007279344
161	0x3dacbfc4	0.08435014
162	0xbd2f3cec	-0.04278271
163	0xbd069c00	-0.032863617
164	0x00000000	0.0
165	0xbd008647	-0.031378057
166	0x3dca07e7	0.098647885
167	0x3d12ada5	0.03581013
168	0x3d644c81	0.055737022
169	0xbd52f940	-0.051507235
170	0x3c1deb27	0.009638584
171	0x00000000	0.0
172	0xbd47a227	-0.048738625
173	0xbd37f383	-0.044909965
174	0xbd650139	-0.05590937
175	0xbd3f1a77	-0.0466561
176	0x3d6c1bac	0.057643577
177	0x00000000	0.0
178	0x3c7b9523	0.015355381
179	0x3dcda71e	0.10041641
180	0x3dd117a5	0.10209588
181	0x3c88fcec	0.016722165
182	0x3a19971f	0.00058590056
183	0xbcba42b8	-0.022736892
184	0x3c9be1b9	0.019028531
185	0xbd8666bd	-0.065625645
186	0x3b73e96d	0.003721799
187	0x3bd88ebe	0.006608813
188	0xbc4ad8cb	-0.012380789
189	0x00000000	0.0
190	0xbd1aebb5	-0.037822444
191	0x3c709fda	0.014686549
192	0xbd62b129	-0.055344734
193	0x3cf879a4	0.03033144
194	0xbbc6920f	-0.006059892
195	0x3db128ab	0.08650335
196	0x00000000	0.0
197	0x3d1e09fc	0.03858374
198	0xbd47bf16	-0.048766218
199	0x3c9b8103	0.018982416
200	0xbd33be0e	-0.043882422
201	0xbc952064	-0.018203922
202	0xbcb74e3b	-0.02237617
203	0xbd23b4e5	-0.039967436
204	0x00000000	0.0
205	0x00000000	0.0
206	0x3dc194d7	0.09452217
207	0xbd4cc563	-0.04999293
208	0xbcee4408	-0.029085174
209	0x00000000	0.0
210	0x00000000	0.0
211	0x3ce8da70	0.028424472
212	0xbd3448dd	-0.0440148
213	0x3c2f6a91	0.01070656
214	0x3d005843	0.031334173
215	0xbce6bfbf	-0.028167604
216	0xbcdcb793	-0.026943004
217	0xbd4538c6	-0.048149846
218	0x3c42e3fa	0.011895174
219	0xbd5e2a95	-0.05423983
220	0xbc8eee37	-0.017447574
221	0xbd3cc35d	-0.04608475
222	0xbd833616	-0.064068004
223	0xbcf50d46	-0.029913556
224	0xbccf75b5	-0.025324682
225	0x3af12396	0.0018397446
226	0x00000000	0.0
227	0x3d262def	0.04057115
228	0xbd3960a9	-0.045258198
229	0x00000000	0.0
230	0x3cc9ecef	0.024649112
231	0xbd94ea44	-0.07271245
232	0xbd0d20b7	-0.034455027
233	0x3c2237cf	0.009901001
234	0xbd4d9353	-0.050189327
235	0xbd4722c3	-0.048617136
236	0xbd41ea76	-0.04734274
237	0x3c2a050f	0.010377183
238	0xbca7146c	-0.02039548
239	0x00000000	0.0
240	0xbd37dd25	-0.044888634
241	0x3d96c4a9	0.07361729
242	0xbd4aed23	-0.049542557
243	0x3db24dac	0.08706221
244	0xbad64a4f	-0.001634905
245	0xbd1ed8ca	-0.038780965
246	0xbbb2645c	-0.0054440927
247	0x3d3bc125	0.045838494
248	0xbd2320c0	-0.039826155
249	0xbd05e15f	-0.032685634
250	0x00000000	0.0
251	0xbd352a52	-0.044229813
252	0xbd546237	-0.051851477
253	0x3bbc9bae	0.005755863
254	0x3c9dbaea	0.019254167
255	0xbc98475f	-0.01858872

shared.4.weight f4 [128, 256]
0	0x3bd26ca7	0.006421644
1	0xbd2b8b3d	-0.041880835
2	0x3a111c86	0.00055355614
3	0xbabcdfc5	-0.001440995
4	0x3d0515fe	0.032491677
5	0xbc71c59f	-0.014756589
6	0x3d89aec8	0.0672279
7	0xbe5ef6d6	-0.21773848
8	0xba029295	-0.0004980949
9	0x3d1f272a	0.03885571
10	0x3d87cf01	0.0663128
11	0x3d5e11cb	0.054216187
12	0x3bd78ddf	0.0065781916
13	0xbd526df3	-0.051374387
14	0xbd6acc85	-0.05732395
15	0xbd5d94ac	-0.054096863
16	0x3d16be56	0.036802612
17	0x3d1980fb	0.03747652
18	0xbd890a3e	-0.06691407
19	0xbcdef576	-0.027216654
20	0x3cb3c85b	0.021946123
21	0x3d43e494	0.04782541
22	0x3d3757e9	0.044761572
23	0xbde14f66	-0.11001472
24	0x3cb812ba	0.022469867
25	0xbc3fedeb	-0.011714439
26	0xbd45674c	-0.048194215
27	0xbd451960	-0.048119903
28	0xbd025475	-0.031818826
29	0x3d713254	0.058885887
30	0xbc750ded	-0.014956933
31	0xbba2bcc5	-0.0049663507
32	0xbcc36842	-0.023853425
33	0x3d116dbe	0.03550505
34	0x3ca2543c	0.019815557
35	0x3c403fb3	0.011733937
36	0xbd77b727	-0.060477402
37	0xbcaed887	-0.021343483
38	0x3bcc4461	0.0062337373
39	0x3cb20379	0.021730172
40	0xbd09f711	-0.033682887
41	0x3d64c573	0.055852365
42	0xbc8c0911	-0.017094167
43	0xbc3e3cfc	-0.0116112195
44	0xbc9d00b1	-0.019165369
45	0x3bf9bd65	0.0076214545
46	0xbd445e4e	-0.0479415
47	0x3c88891f	0.016666947
48	0x3c215e83	0.0098491935
49	0x3c878ad2	0.016545687
50	0xbd921c36	-0.07134287
51	0x3b83031d	0.003998174
52	0xbd13c048	-0.036072046
53	0x3d02b16c	0.031907484
54	0xbd13b9b0	-0.036065757
55	0x3c16d5ad	0.009206218
56	0xbcee2257	-0.029069109
57	0x3d6da56d	0.05801909
58	0xbaa50dd5	-0.0012592623
59	0x3c8dd1e4	0.017311998
60	0xbc36df01	-0.011161567
61	0xbcbbc7cd	-0.02292242
62	0xbd0396b8	-0.03212616
63	0x3d871bf7	0.06597131
64	0x3ced470e	0.028964546
65	0xbd2cbe19	-0.04217348
66	0x3d137003	0.035995495
67	0xbc523071	-0.012828932
68	0x3d55e64e	0.05222159
69	0x3d50cd30	0.050976932
70	0x3ba53595	0.005041788
71	0xbbc71cde	-0.0060764393
72	0x3d4b207a	0.04959152
73	0x3c851261	0.016244115
74	0x3d5cd183	0.053910743
75	0xbd0a177b	-0.0337138
76	0x3c748656	0.014924606
77	0xbca847b9	-0.020542013
78	0xbc957915	-0.018246213
79	0xbc880f79	-0.01660894
80	0xbcd36b8a	-0.025808115
81	0x3cfaf4b5	0.030634264
82	0x3ddd577f	0.10807704
83	0x3c1738c7	0.009229845
84	0x3d46bd5e	0.04852044
85	0xbcc4a8a5	-0.024006197
86	0x3ccf2b87	0.02528931
87	0x3aaee8ac	0.0013344488
88	0x3d2ab007	0.04167178
89	0x3d34f17d	0.044175614
90	0xbc987b2c	-0.01861342
91	0x3d263b1b	0.04058371
92	0xbc14f525	-0.00909165
93	0x3d5acf65	0.053420443
94	0x3cadc41b	0.021211674
95	0x3b650295	0.0034944166
96	0x3d66ba6c	0.05633013
97	0x3d2a873b	0.041632872
98	0xbcc06641	-0.023486258
99	0xbc4e1e5d	-0.012580481
100	0x3ce3e909	0.02782108
101	0x3cffdc85	0.031233082
102	0xbc9c06ed	-0.019046271
103	0x3d989641	0.07450534
104	0x3b8d7655	0.004317085
105	0xbd441d41	-0.04787946
106	0xbc349515	-0.011021872
107	0xbca562a9	-0.020188646
108	0x3c0e88f5	0.008699645
109	0xbd6cf442	-0.05785013
110	0x3d54abe7	0.05192175
111	0xbd5f2d55	-0.05448659
112	0x3dc10f8a	0.09426792
113	0x3d82c47c	0.06385133
114	0x3d0847fc	0.033271775
115	0x3c5dc9a2	0.013536843
116	0x3d543b37	0.051814284
117	0x3d91ec4b	0.071251474
118	0xba503bcb	-0.000794348
119	0xbd126f4f	-0.035750683
120	0x3d749d19	0.059720132
121	0xbc836962	-0.016041461
122	0x3c1b4f01	0.009479285
123	0xbd0b0a5c	-0.033945426
124	0xbc5edc8d	-0.013602388
125	0xbca6304c	-0.020286702
126	0x3d86e7d3	0.06587186
127	0xbdbf8ce7	-0.09353047
128	0xbbeff817	-0.007323276
129	0xbc835249	-0.016030448
130	0xbd7cf321	-0.061755303
131	0xbcccdac3	-0.025006657
132	0xbd0552c9	-0.032549653
133	0x3ca66b8d	0.020314956
134	0x3d32bac2	0.043635137
135	0xbc8a0211	-0.016846688
136	0xbd42d0c3	-0.047562372
137	0x3c521c15	0.012824078
138	0x3d1534d2	0.036427327
139	0xbc7c175d	-0.01538643
140	0xbd2d80b2	-0.04235906
141	0xbc73f18d	-0.014889133
142	0xbdb91fc2	-0.090392604
143	0x3d2835ba	0.041066863
144	0x3ce8a23b	0.02839767
145	0x3a3f6695	0.00073013577
146	0xbd740bfb	-0.059581738
147	0xbd123310	-0.03569323
148	0x3d66c937	0.056344237
149	0x3bc5c825	0.006035822
150	0xbb598d6d	-0.0033195869
151	0x3dc564af	0.096383445
152	0x3c39dc99	0.0113440985
153	0x3c264d22	0.010150226
154	0x3d1f00d9	0.038819168
155	0xbd07f760	-0.0331949
156	0xbb65fb02	-0.003509224
157	0xbcd51105	-0.026009092
158	0xbd01ed8d	-0.031720687
159	0xbcfd6743	-0.030933028
160	0xbd69c427	-0.05707183
161	0xbd87791d	-0.066148974
162	0xbc4032f9	-0.011730903
163	0xbd0445db	-0.032293182
164	0xbc6b53ed	-0.014363271
165	0x3d5325d9	0.051549766
166	0xbd81535b	-0.06314727
167	0x3d2a9d36	0.041653834
168	0xbd390674	-0.04517217
169	0x3cde2311	0.02711633
170	0x3d9ff8f0	0.07811153
171	0x3ccbb4cd	0.024866486
172	0xbbc1bdf1	-0.0059125354
173	0x3d2cff2e	0.042235546
174	0xbd3f7f24	-0.04675211
175	0xbd3a950b	-0.045552295
176	0x3d048bb3	0.03235979
177	0xbd319b15	-0.04336079
178	0x3d81d525	0.06339482
179	0x3d74a6a7	0.059729245
180	0xbd8c4811	-0.06849683
181	0x3d445ee4	0.047942057
182	0xbcfb58bb	-0.030681958
183	0x3cc4c310	0.024018794
184	0x3d55a6fc	0.0521612
185	0xbcc1b08c	-0.023643754
186	0x3d107e48	0.03527668
187	0xbcbd4fc9	-0.023109334
188	0x3a445094	0.0007488814
189	0x3d5dfc41	0.054195646
190	0xbd4c9cc2	-0.049954183
191	0xb9ab1a85	-0.0003263542
192	0xbd2813ad	-0.04103439
193	0x3c97a005	0.01850892
194	0xbb094fd0	-0.0020952113
195	0xbd6fa44f	-0.058506306
196	0x3d5de2f1	0.054171506
197	0x3d7a990d	0.061181117
198	0x3d6d433a	0.05792544
199	0xbce4aef0	-0.027915448
200	0x3cb11861	0.02161807
201	0xbd39d966	-0.045373343
202	0xbce9a3b0	-0.028520435
203	0xbcc880af	-0.024475424
204	0x3d3fa7b9	0.046790812
205	0x3c089fb5	0.008338858
206	0xbdf887b6	-0.1213526
207	0x3d03fba0	0.03222239
208	0xbc762337	-0.015023044
209	0x3cf24b9d	0.02957707
210	0xbcff0db9	-0.031134473
211	0x3d1b56d5	0.037924606
212	0x3d8b26d3	0.067945145
213	0xbdb2396e	-0.0870236
214	0x3d838df0	0.06423557
215	0xbc903644	-0.017604
216	0xbd1a1c23	-0.03762449
217	0x3d31f3b8	0.04344532
218	0xbd54f91b	-0.051995378
219	0x3d64a4b9	0.055821154
220	0xbc34b119	-0.0110285515
221	0x3cd94c49	0.026525633
222	0xbcad3c99	-0.02114706
223	0xbcb444d0	-0.022005469
224	0x3ca392ab	0.019967398
225	0xbc37257e	-0.011178372
226	0x3d3e5351	0.046466175
227	0xbcb8b915	-0.022549191
228	0x3d9196e9	0.07108862
229	0xb8a7bd15	-7.9984e-05
230	0x3a6d42e2	0.0009050799
231	0x3d52b908	0.05144599
232	0xbd49c531	-0.049260322
233	0x3d554650	0.05206901
234	0x3c4182f5	0.011811008
235	0xbb325f97	-0.002721762
236	0x3d3c1c55	0.045925457
237	0x3b559a8b	0.0032593335
238	0xb9e1127a	-0.0004292911
239	0xbd768983	-0.060189735
240	0x3d28bacf	0.04119378
241	0x3bbf83b7	0.005844559
242	0xbd40a489	-0.047031913
243	0x3d4499b1	0.047998134
244	0xbaaac5c3	-0.0013028908
245	0x3d0052b2	0.031328864
246	0x3ccba28f	0.024857787
247	0xbded345f	-0.115822546
248	0x3cd01d72	0.025404666
249	0xbd1b8d03	-0.037976276
250	0x3d2b143b	0.04176734
251	0xbd0767fa	-0.033058144
252	0x3abcfc1a	0.0014418394
253	0xbda690b2	-0.08133067
254	0x3c6d6940	0.014490426
255	0xbd82f2b7	-0.063939504

shared.4.bias f4 [128]
0	0x3c3a2b71	0.011362896
1	0xbd582c6d	-0.052776743
2	0xbcfca53d	-0.03084051
3	0x3be19482	0.0068841586
4	0xbd247071	-0.040146295
5	0x3cd9df78	0.026595816
6	0x3cd4c193	0.02597121
7	0x3d7dba2b	0.06194512
8	0xbccdda8a	-0.025128622
9	0xbc020798	-0.007936381
10	0x3cb6c13e	0.022308942
11	0x3d84bbaf	0.0648111
12	0x3d795c10	0.060878813
13	0x3d4fb0be	0.050705664
14	0x3c64e959	0.01397165
15	0x3d58ff18	0.05297765
16	0xbd81c683	-0.06336691
17	0xbd0abe75	-0.03387304
18	0xbd1aacb1	-0.037762348
19	0xbbc6aed2	-0.0060633207
20	0xbc1d2203	-0.009590629
21	0xbd2636f8	-0.040579766
22	0xbcc16c26	-0.02361114
23	0x3d6bf66c	0.057608053
24	0xbca51c0f	-0.020154981
25	0xb8d6c126	-0.00010240292
26	0xbd387591	-0.045033995
27	0x3a01f171	0.0004956937
28	0x3cf9dc4c	0.030500554
29	0x3d2b5e57	0.041838016
30	0xbbda6006	-0.006664279
31	0xbc04ebb3	-0.008112836
32	0xbc3d60bc	-0.011558708
33	0xbd6e4ccd	-0.05817871
34	0xbc8d4853	-0.017246401
35	0xbd1a2e79	-0.037641976
36	0xbcdd7e59	-0.027037786
37	0xbd6edbd4	-0.058315113
38	0x3c9afe25	0.018920014
39	0xbd061eaa	-0.032744087
40	0x3d528b87	0.051402595
41	0x3d18f2d5	0.037340958
42	0x3b35ae31	0.0027722234
43	0xbd148246	-0.03625705
44	0xbcc0bde8	-0.023528054
45	0x3c1206d7	0.008912764
46	0xbb204f7a	-0.0024461434
47	0x3b92298f	0.0044605206
48	0xbcaf56fd	-0.021403784
49	0xbc87c822	-0.016574923
50	0xbc95a9ec	-0.018269502
51	0xb9b4a791	-0.00034457122
52	0x3d176b6d	0.036967684
53	0x3d4564fe	0.048192017
54	0xbc8814eb	-0.016611537
55	0xbd849ba5	-0.06474999
56	0x3d75fa7b	0.06005333
57	0x3d1001d5	0.035157997
58	0x3d3ebd5c	0.046567306
59	0xbb83c51b	-0.0040212995
60	0x3ccd37db	0.025051048
61	0xbcca693d	-0.024708385
62	0x3bca6b89	0.00617737
63	0xbd10f837	-0.035392966
64	0xbcdacf0f	-0.026710061
65	0x3c84677c	0.016162626
66	0xbcd1f861	-0.025631132
67	0xbc530b36	-0.012881091
68	0xbd2e0bf9	-0.042491887
69	0x3d1bfa16	0.038080297
70	0xbd74e085	-0.05978443
71	0xbc7834cb	-0.015149306
72	0xbbcf408a	-0.0063248323
73	0x3c4b7b59	0.012419545
74	0xbc3613a8	-0.011113085
75	0x3d789f81	0.06069899
76	0xbcf45f68	-0.02983065
77	0x3c620727	0.013795651
78	0xbc3f7aad	-0.011686963
79	0x3d0f74a7	0.035023358
80	0xbd12fb39	-0.035884116
81	0x3d5815f3	0.052755307
82	0xbc769585	-0.015050297
83	0xbce3d07b	-0.027809372
84	0x3d43bf40	0.047789812
85	0xbd020d36	-0.03175088
86	0x3cd6dcc3	0.026228314
87	0x3b8e427d	0.004341422
88	0xbd07387c	-0.033012852
89	0x3c7b1729	0.015325346
90	0xbd0f709f	-0.035019513
91	0x3d0d132f	0.034442123
92	0x3d0c0afb	0.03419016
93	0xbc8c3410	-0.01711467
94	0xbb57f62b	-0.0032953124
95	0x3d1c82ec	0.038210794
96	0xbd099cdf	-0.03359687
97	0x3c1ce63e	0.009576378
98	0xbd5d6bd1	-0.0540579
99	0x3d70de9a	0.05880604
100	0x3ce572b8	0.028008804
101	0x3d3c5f87	0.04598954
102	0xbcf8fe05	-0.030394563
103	0xbd05a109	-0.03262428
104	0xbd3a58d9	-0.045494888
105	0xbd2a2abe	-0.04154467
106	0x3d7023f5	0.05862804
107	0x3ca86058	0.020553753
108	0x3c0d1bbc	0.008612569
109	0x3d7997a0	0.060935616
110	0x3c9bb9ff	0.019009588
111	0x3d4e6b2c	0.050395176
112	0xbd824f26	-0.063627526
113	0x3d69d2e0	0.05708587
114	0x3c940188	0.018067136
115	0x3bdb534e	0.0066932803
116	0x3d522f2e	0.051314525
117	0x3d369d3c	0.044583544
118	0x3ca46ab0	0.020070404
119	0x3d6055f8	0.054769486
120	0x3cfa683a	0.030567277
121	0xbd372371	-0.044711534
122	0xbc7d8943	-0.01547462
123	0x3d15a93f	0.03653836
124	0x3d50187b	0.050804596
125	0x3c2424f7	0.010018579
126	0x3c673afb	0.014113183
127	0xbcf7f0ae	-0.030266132

shared.5.weight f4 [128]
0	0x3f7f7c43	0.99798983
1	0x3f890118	1.0703459
2	0x3f84c5a6	1.0372818
3	0x3f7a839a	0.9785706
4	0x3f7ae266	0.98001707
5	0x3f81d34d	1.0142609
6	0x3f7f71d7	0.9978308
7	0x3f70511a	0.9387375
8	0x3f7f5c53	0.9975025
9	0x3f7ce8dc	0.98792815
10	0x3f76959b	0.9632203
11	0x3f85e051	1.0459081
12	0x3f7ea15d	0.9946497
13	0x3f75f283	0.9607317
14	0x3f7c0dcb	0.98458546
15	0x3f8504c8	1.0392084
16	0x3f7d98fe	0.9906157
17	0x3f77bf2c	0.9677608
18	0x3f7b281a	0.98108065
19	0x3f823e40	1.0175247
20	0x3f8782db	1.0586809
21	0x3f7bf013	0.984132
22	0x3f8a70d2	1.081568
23	0x3f7adf04	0.97996545
24	0x3f7c1c1d	0.984804
25	0x3f7bdae1	0.9838086
26	0x3f78ddfc	0.9721372
27	0x3f7d3844	0.9891398
28	0x3f7bc277	0.98343605
29	0x3f7bc86b	0.9835269
30	0x3f7c79bd	0.9862326
31	0x3f7fb6aa	0.998881
32	0x3f82877d	1.0197598
33	0x3f719e30	0.94382
34	0x3f7cd75d	0.9876612
35	0x3f7e9f5c	0.99461913
36	0x3f77c220	0.96780586
37	0x3f7b9f0e	0.98289573
38	0x3f6fce52	0.93674195
39	0x3f8391cc	1.0278869
40	0x3f6cb128	0.9245782
41	0x3f85b5d4	1.0446115
42	0x3f8a3178	1.0796347
43	0x3f75fa79	0.96085316
44	0x3f79a0f9	0.9751125
45	0x3f813586	1.0094459
46	0x3f7fb33e	0.99882877
47	0x3f7fdabd	0.99943143
48	0x3f7d3e81	0.989235
49	0x3f7e7b3f	0.9940681
50	0x3f81de26	1.0145919
51	0x3f7d398f	0.9891595
52	0x3f7cffc0	0.98827744
53	0x3f7daac2	0.9908868
54	0x3f7c773e	0.9861945
55	0x3f7e9ec8	0.9946103
56	0x3f7d2ce0	0.988966
57	0x3f7aab45	0.97917587
58	0x3f82b351	1.0210973
59	0x3f7e24ca	0.99274886
60	0x3f8295d5	1.0201975
61	0x3f7b0666	0.9805664
62	0x3f7ef978	0.9959941
63	0x3f7dcd1f	0.99141115
64	0x3f7b40bb	0.98145646
65	0x3f7e0cd2	0.9923831
66	0x3f7d2bf4	0.9889519
67	0x3f7f6c29	0.99774414
68	0x3f8a404e	1.0800874
69	0x3f872f57	1.0561322
70	0x3f7e05eb	0.9922778
71	0x3f7be65e	0.9839839
72	0x3f829e37	1.0204533
73	0x3f72614c	0.94679713
74	0x3f827da3	1.0194591
75	0x3f7e0eae	0.9924115
76	0x3f817b2a	1.0115712
77	0x3f72eea2	0.94895375
78	0x3f7c2f09	0.9850927
79	0x3f7a6045	0.97803146
80	0x3f7e692a	0.9937922
81	0x3f81673b	1.0109628
82	0x3f7b9350	0.98271656
83	0x3f82e63f	1.0226516
84	0x3f8224f9	1.0167533
85	0x3f7d9493	0.9905483
86	0x3f78a743	0.9713022
87	0x3f79e278	0.9761119
88	0x3f7cd869	0.98767716
89	0x3f7676c1	0.96274954
90	0x3f7d3b7a	0.9891888
91	0x3f7c2d71	0.9850684
92	0x3f6a25e4	0.91464067
93	0x3f806db5	1.003348
94	0x3f7a8e08	0.9787297
95	0x3f82abcf	1.0208682
96	0x3f6e5b4e	0.9310807
97	0x3f8088ec	1.0041785
98	0x3f7b3cc7	0.98139614
99	0x3f83f885	1.0310217
100	0x3f809f5d	1.0048634
101	0x3f7c1351	0.98466974
102	0x3f7dbd01	0.9911652
103	0x3f879dbb	1.059501
104	0x3f8020e7	1.0010041
105	0x3f80c519	1.006015
106	0x3f812765	1.0090147
107	0x3f7a482e	0.9776639
108	0x3f7c05ab	0.9844615
109	0x3f7df7ce	0.99206245
110	0x3f819e22	1.0126383
111	0x3f828335	1.0196291
112	0x3f7c7418	0.98614645
113	0x3f7fc3ca	0.99908125
114	0x3f8788df	1.0588645
115	0x3f70a229	0.93997437
116	0x3f7bc2ac	0.9834392
117	0x3f7a0b95	0.9767392
118	0x3f7eccea	0.99531424
119	0x3f809c3a	1.0047677
120	0x3f812cdc	1.0091815
121	0x3f880ba0	1.0628548
122	0x3f7eb661	0.9949704
123	0x3f80b02d	1.0053765
124	0x3f84098c	1.0315413
125	0x3f7b62e0	0.98197746
126	0x3f819209	1.0122691
127	0x3f81e24e	1.0147188

shared.5.bias f4 [128]
0	0xbbe39e6f	-0.006946377
1	0x3b6f4738	0.0036510956
2	0xbc1de00e	-0.009635938
3	0xbc9d1d78	-0.01917909
4	0xbc85801b	-0.016296437
5	0xbc820ca1	-0.015875163
6	0xbc1d499e	-0.009600071
7	0xbd247833	-0.040153693
8	0xbc1b091c	-0.009462621
9	0xbc63fa75	-0.013914694
10	0xbcc645d4	-0.024203219
11	0xbb230a44	-0.0024877945
12	0xbbb70ca8	-0.0055862255
13	0xbca50582	-0.020144228
14	0xbc1e24de	-0.0096523445
15	0xbb2f365a	-0.0026735277
16	0xbc167fbc	-0.009185728
17	0xbcbe6fd7	-0.023246689
18	0xbc303d0b	-0.010756741
19	0xbb43d6f6	-0.0029882765
20	0xbc395423	-0.011311564
21	0xbc616949	-0.013758012
22	0x39e21df5	0.000431284
23	0xbc61f663	-0.013791653
24	0xbba5b6df	-0.0050572003
25	0xbb9c1d8d	-0.004764265
26	0xbbde1ba4	-0.0067781974
27	0xbc30ecda	-0.010798657
28	0xbc456379	-0.012047642
29	0xbc956a2a	-0.0182391
30	0xbc46007e	-0.012085078
31	0xbc6e0621	-0.014527828
32	0xbaf3002a	-0.0018539478
33	0xbd1db30c	-0.03850083
34	0xbd07e3f1	-0.033176366
35	0xbd376fbe	-0.0447843
36	0xbcbeabf2	-0.02327535
37	0xbcc9e3f4	-0.02464483
38	0xbd1aa489	-0.03775457
39	0xbc6c2a85	-0.014414434
40	0xbd403086	-0.046921276
41	0xbbc380f8	-0.005966302
42	0xb982b0d0	-0.00024927268
43	0xbd189954	-0.0372556
44	0xbbf6ff0d	-0.0075377286
45	0xbbc2d09c	-0.0059452783
46	0xbc566b35	-0.013087084
47	0xbb791697	-0.003800785
48	0xbc456be2	-0.012049647
49	0xbc78dcc5	-0.015189354
50	0xbc445c07	-0.011984832
51	0xbc4e045c	-0.012574282
52	0xbc73eb2e	-0.014887614
53	0xbc0c0a1f	-0.008547335
54	0xbb9a2b05	-0.0047048354
55	0xbc5ee335	-0.013603975
56	0xbc5a4d01	-0.013324023
57	0xbc256802	-0.010095598
58	0xba880975	-0.0010378795
59	0xbadc5ddc	-0.001681264
60	0x3b8534c7	0.0040651294
61	0xbc4cd48d	-0.012501848
62	0xbc61e9b2	-0.013788627
63	0xbc5a0712	-0.01330735
64	0xbc41ac0d	-0.011820805
65	0xbc18d1f5	-0.009327401
66	0xbc7d47f7	-0.015459052
67	0xbc90417a	-0.017609347
68	0xbb31bdc4	-0.0027121166
69	0xba9a9920	-0.0011794902
70	0xbc346cdb	-0.011012281
71	0xbc808aaa	-0.01569112
72	0xbd051d41	-0.0324986
73	0xbd1eaff6	-0.03874203
74	0xbb2a0de9	-0.0025948233
75	0xbc3183a7	-0.010834611
76	0xbb74a63e	-0.0037330533
77	0xbcf66677	-0.030078156
78	0xbc74a0f0	-0.014930949
79	0xbc53afac	-0.012920301
80	0xbc499be2	-0.012305232
81	0xbc3aace2	-0.011393758
82	0xbcb1b783	-0.02169395
83	0xbcd29bdc	-0.025709085
84	0xbc2afc66	-0.010436153
85	0xbc367fe0	-0.011138886
86	0xbd125376	-0.035724126
87	0xbc516b93	-0.012781995
88	0xbc43feaf	-0.011962577
89	0xbcf00564	-0.029299445
90	0xbc57db88	-0.013174899
91	0xbc5b3759	-0.013379895
92	0xbd3c6fb4	-0.046004966
93	0x3972456c	0.0002310478
94	0xbc8406e4	-0.016116567
95	0xbca603b6	-0.020265441
96	0xbd3b00c2	-0.04565502
97	0xbbd5b938	-0.006522324
98	0xbc46be4b	-0.01213033
99	0xbcb68cf3	-0.022284007
100	0xbc18351f	-0.009290009
101	0xbc108215	-0.0088200765
102	0xbb93c5e5	-0.004509675
103	0xbc89e6a8	-0.016833618
104	0xbc1a610d	-0.009422553
105	0xbb62e537	-0.0034621486
106	0xb9cb702c	-0.00038802752
107	0xbc661494	-0.014042992
108	0xbc2c476b	-0.010515074
109	0xbb8255c1	-0.003977508
110	0xbbb50d7a	-0.005525288
111	0xbcb35b05	-0.021893987
112	0xbc1e43fc	-0.009659763
113	0xbbcd47d0	-0.006264664
114	0xbad94f61	-0.0016579443
115	0xbccd85eb	-0.025088271
116	0xbc83d149	-0.016091006
117	0xbc69010f	-0.014221444
118	0xbc0e92c4	-0.008701984
119	0xbb8e821b	-0.004349006
120	0xbbdde092	-0.0067711556
121	0x3b2a82b7	0.0026017854
122	0xbc24f3d0	-0.010067895
123	0xbc3e50e0	-0.011615962
124	0xbbc55d88	-0.0060231127
125	0xbc8508f3	-0.016239619
126	0xbc28e0df	-0.01030752
127	0xbc1ea8e7	-0.009683824

rent_branch.0.weight f4 [64, 128]
0	0xbcf5e304	-0.030015476
1	0xbbf39843	-0.0074339225
2	0x3ce4b146	0.027916562
3	0xbd27bb1a	-0.04094992
4	0x3b7d9143	0.003869132
5	0x3db8339c	0.08994219
6	0x3c901f98	0.01759319
7	0xbd55a2e2	-0.05215729
8	0xbc2aeb43	-0.010432067
9	0x3ceff440	0.029291272
10	0x3d04eed1	0.032454316
11	0x3caa1db8	0.020766124
12	0xbd958eaf	-0.07302605
13	0xbdb9ebba	-0.090781644
14	0xbd5aaf79	-0.05339
15	0x3cb5f85c	0.022213154
16	0xbd0de247	-0.034639623
17	0xbc5ed912	-0.013601558
18	0xbce908a9	-0.028446512
19	0x3d7572ba	0.059923865
20	0x3d973ad8	0.073842704
21	0xbcf759a6	-0.030194115
22	0xbd2aa65c	-0.04166256
23	0x3db31c5f	0.08745646
24	0x3dbf7b03	0.093496345
25	0x3d4caaac	0.049967453
26	0x3bc47057	0.0059948373
27	0xbdb8174b	-0.08988818
28	0xbd1f1b95	-0.038844664
29	0x3d87805c	0.066162795
30	0xbd4e4865	-0.05036201
31	0x3ca4e738	0.020129785
32	0xbc560f49	-0.013065168
33	0x3d8a62a4	0.067570955
34	0x3d07493f	0.033028837
35	0xbd022477	-0.031773057
36	0x3d76e29e	0.060274713
37	0x3d87a7a0	0.06623769
38	0x3c06294b	0.008188556
39	0x3c7f1636	0.01556926
40	0xbc628015	-0.013824482
41	0x3ca1f5ab	0.019770464
42	0xbc14d31b	-0.009083535
43	0x3c5fe26c	0.013664823
44	0x3c1c1f22	0.009528907
45	0xbd2f2a03	-0.042764675
46	0xbd9fb85e	-0.07798837
47	0xbd540642	-0.05176378
48	0xbd980983	-0.07423689
49	0xbd27c704	-0.04096128
50	0x3c871b99	0.016492652
51	0x3d210035	0.039306838
52	0xbd3d58f2	-0.046227403
53	0xbdd70e34	-0.10500756
54	0xbd59d52e	-0.05318182
55	0x3d70f9b8	0.0588319
56	0xbd53298f	-0.051553305
57	0x3cb635a9	0.022242384
58	0xbbb9aa53	-0.005666056
59	0x3d98e7f0	0.074661136
60	0xbd739711	-0.05947024
61	0x3d5498bf	0.051903483
62	0x3d7c07a3	0.06153072
63	0x3ccd0565	0.025026986
64	0x3d82ba9b	0.063832484
65	0xbceb2c22	-0.028707568
66	0xbc3cf41d	-0.0115328105
67	0x3c70c4eb	0.014695386
68	0x3d385603	0.045003902
69	0xbe027f78	-0.12743938
70	0xbcbf0d80	-0.023321867
71	0x3c4a0ae0	0.012331694
72	0xbd24f4ff	-0.04027271
73	0x3b89a2a6	0.0042002974
74	0xbd24c09f	-0.04022276
75	0x3c3913a7	0.011296189
76	0xbc7c5f12	-0.015403526
77	0xbcbd92a0	-0.023141205
78	0x3dbe5249	0.092930384
79	0x3d6356cf	0.05550271
80	0xbc4c09a2	-0.0124534685
81	0xbdf50dfb	-0.11965557
82	0xbe0f5fce	-0.1400139
83	0x3e01346b	0.12617652
84	0xbddc39c7	-0.10753208
85	0xbcef3212	-0.02919868
86	0x3da80dbe	0.08205746
87	0x3d1130e9	0.035447035
88	0x3d5c6221	0.05380452
89	0x3cff12ef	0.031136958
90	0xbb10581f	-0.002202518
91	0x3ce1cd0a	0.02756359
92	0xbced9198	-0.029000089
93	0xbbcb151d	-0.0061975853
94	0xbd0088c3	-0.031380426
95	0xbd2a9c6b	-0.041653078
96	0xbd93714d	-0.07199345
97	0xbd5ffbba	-0.054683425
98	0xbcdde8b2	-0.027088497
99	0xbc21f81f	-0.009885817
100	0x3cfafa29	0.030636864
101	0xbd3a0b3a	-0.045420863
102	0xbbca7e86	-0.0061796336
103	0xbd3f3410	-0.04668051
104	0xbca148f6	-0.01968811
105	0x3b636272	0.003469613
106	0xbca4e9f0	-0.020131081
107	0xbc98f232	-0.018670175
108	0x3cd210e4	0.02564282
109	0xbd878ecc	-0.06619033
110	0x3d6ca30d	0.057772685
111	0x3cb4890c	0.022038005
112	0xbcf6caf3	-0.03012607
113	0x3c77c3f4	0.015122402
114	0x3d9f8715	0.07789437
115	0x3d627c5f	0.05529439
116	0x3c25b8b9	0.010114842
117	0x3cc10469	0.023561673
118	0x3c29e530	0.010369584
119	0x3cb9ad96	0.02266578
120	0xbd9018b2	-0.0703596
121	0x3bd0ffdd	0.0063781575
122	0x3cc05adf	0.02348083
123	0xbd8bf47e	-0.068337426
124	0xbd44c147	-0.048035886
125	0x3c59e9c2	0.013300361
126	0x3d7f10ab	0.062271755
127	0xbdf54f13	-0.11977973
128	0x3dc2ae50	0.09505904
129	0x3d9b2792	0.07575907
130	0xbd020b8c	-0.031749293
131	0xbdb3ccef	-0.08779322
132	0x3da1b27c	0.07895371
133	0xbc604b35	-0.013689806
134	0x3d6a128d	0.057146598
135	0xbd9fb9f1	-0.077991374
136	0x3cfe9d20	0.031080782
137	0x3cf696c6	0.030101191
138	0x3c1e5157	0.009662948
139	0xbbdc27b4	-0.0067186
140	0xbd93da81	-0.07219411
141	0x3d549836	0.051902972
142	0x3d142eba	0.036177374
143	0x3d0c8971	0.03431076
144	0x3da38440	0.07984209
145	0xbd0c73bc	-0.03429006
146	0x3d1c4bd6	0.03815826
147	0xbbc6f08b	-0.0060711554
148	0x3d8a9523	0.06766727
149	0xbcfa1700	-0.030528545
150	0x3d8a524b	0.067539774
151	0x3d9de00d	0.0770875
152	0x3d3bb87f	0.045830246
153	0x3cf75c63	0.03019542
154	0xbd4279f8	-0.0474796
155	0xbc90cb8d	-0.017675186
156	0xbc15e340	-0.009148419
157	0xbcc802b4	-0.024415351
158	0x3d8d036e	0.0688542
159	0xbd38ad1e	-0.045086972
160	0xbcfae9a9	-0.030628996
161	0x3d298270	0.04138416
162	0x3aae8c9d	0.0013317053
163	0xbd999535	-0.07499162
164	0xbd8e64a0	-0.069527864
165	0x3cb9b0f0	0.022667378
166	0x3d53ab63	0.05167712
167	0x3db2591f	0.08708405
168	0x3d2d00df	0.04223716
169	0x3cadb9fa	0.021206845
170	0xbca52f77	-0.020164235
171	0xbceba49e	-0.028765019
172	0xbd2a60ca	-0.04159621
173	0x3dbbaaea	0.09163459
174	0x3d6ed9ca	0.05831317
175	0x3da5f2db	0.08102962
176	0x3d3189b5	0.04334422
177	0x3d288128	0.041138798
178	0xbca1cb12	-0.019750152
179	0xbcb85c55	-0.022504965
180	0x3d57ac10	0.052654326
181	0x3a4a0224	0.00077060075
182	0x3befeab3	0.0073216795
183	0x3d87cb60	0.066305876
184	0xbd74dd39	-0.059781287
185	0x3d61a6fd	0.055090893
186	0x3d3e375b	0.04643951
187	0x3d85b4ac	0.06528601
188	0x3da3ab2f	0.07991635
189	0xbd4697b1	-0.048484508
190	0x3db3b05b	0.087738715
191	0xbdc36627	-0.095409684
192	0xbd092b89	-0.033488784
193	0x3ac237b2	0.0014817624
194	0xbd4f63db	-0.05063234
195	0x3daacd3b	0.08339926
196	0xbd512547	-0.05106094
197	0xbcd7ff22	-0.026366774
198	0x3d13ea9f	0.036112424
199	0x3d060765	0.032721896
200	0x3da1df50	0.079039216
201	0xbd524665	-0.051336665
202	0xbc0f07ab	-0.0087298555
203	0xbd5e9a0e	-0.054346137
204	0x3d86dce4	0.065851
205	0xbd9dbbf3	-0.07701864
206	0xbda03573	-0.07822695
207	0xbd500f28	-0.050795704
208	0xbcb49c61	-0.022047224
209	0xbd6dbe57	-0.05804285
210	0x3c4d580f	0.012533202
211	0xbda98ab6	-0.0827841
212	0xbc8912e2	-0.016732637
213	0xbc5ae620	-0.01336053
214	0xbc3fef14	-0.0117147155
215	0xbb1dac75	-0.0024059091
216	0xbd2202aa	-0.039553322
217	0xbd78acf5	-0.06071182
218	0x3dc89cee	0.09795557
219	0xbd0472ac	-0.032335922
220	0xbd43ea6d	-0.047830988
221	0xbd91d2a3	-0.07120254
222	0xbdb1aab1	-0.08675135
223	0x3d3bc0e6	0.04583826
224	0xbd88c4a0	-0.06678128
225	0x3ce28c1a	0.027654696
226	0xbd3195c3	-0.043355715
227	0xbcfe4a50	-0.031041294
228	0x3ce87cc6	0.02837981
229	0xbd0e070b	-0.034674685
230	0x3d9b1919	0.075731464
231	0xbd6db521	-0.058034066
232	0xbd27bad0	-0.040949643
233	0xbd17a41e	-0.03702175
234	0xbd8766c7	-0.066114
235	0x3d904489	0.07044322
236	0xbbb058f9	-0.0053817
237	0x3cb4315e	0.021996196
238	0xbce5af55	-0.028037706
239	0x3ce9c6b0	0.028537124
240	0x3d800119	0.06250209
241	0xbc04a465	-0.008095835
242	0xbd891f5d	-0.06695435
243	0xbbe49631	-0.006975912
244	0xbda63228	-0.08115035
245	0x3db97b3f	0.090567105
246	0x3d9ceefb	0.076627694
247	0xbc165079	-0.00917446
248	0xbce100df	-0.027466236
249	0xbcf7d922	-0.030254904
250	0x3ce24d83	0.027624851
251	0xbccc3466	-0.02492733
252	0xbd65f96d	-0.056146074
253	0xbcae2404	-0.021257408
254	0x3db30991	0.08742059
255	0xbd7122e7	-0.058871176
