predictor/models/simple_cost_predictor.pth (torch, 249900 bytes, 23 tensors)

shared.0.weight f4 [256, 1]
0.19875412 0.40931553 -0.5879974 -0.40983966 0.88408476 -0.16857724 -1.0711807 -0.19770452
-0.9127302 0.34986666 0.58717424 -0.9939451 -0.6342432 0.39465895 0.24475287 0.33922446
-0.5247877 0.58905655 -6.0911636e-05 0.3377941 0.24399763 -0.8058366 -0.6024153 0.785585
-0.87502205 0.16673663 -0.0021239375 -0.5394658 -0.453621 -0.6489669 0.1313817 -0.63215417
0.8487945 -0.17059588 -0.86043197 -0.26490304 0.19524582 -0.25999638 1.0441586 -0.8467688
0.62070036 0.2689446 -0.6659185 -0.19383577 0.44876915 0.06050858 -0.86788785 0.17566204
0.2488719 -0.4987919 -0.9399543 0.37560272 -0.4464717 0.19602096 0.113105014 -0.21081704
-0.2888819 1.0261449 -0.20990705 0.3486179 -0.45625114 0.1658819 -0.4463013 -0.90712196
-0.01879066 0.4646085 0.8966594 -0.5413407 0.4021127 -0.7312243 -0.8135003 0.16838118
-0.9470497 0.50473017 -0.6688569 -0.03150982 0.11789506 -0.5114818 0.6496547 0.36171976
0.3889794 0.9479446 0.88174397 -0.91249216 0.8378553 0.25059098 0.9811113 0.39283994
0.12149412 -0.5781103 -0.65245044 -0.59038466 -0.3526887 0.76199985 -0.27418965 0.3461316
-0.55020595 -0.041105412 -1.0074059 -0.91646624 0.16898124 0.07657366 0.9002494 -0.8639567
-0.36590615 -0.9916348 -0.8933151 0.7036477 -0.5320303 -0.9070049 -0.49719375 -0.0980531
-0.65283483 -0.61762697 -0.5597026 0.36892274 0.8646137 -0.62426764 0.83651966 -0.15380289
0.6816639 -0.8082665 -0.80067813 0.07005697 0.4815277 -0.9125383 0.32358834 -0.7118311
0.17135915 0.86117935 0.37531835 0.3360618 -0.75408804 -0.63593036 -0.5820382 -0.21802412
0.1885528 -0.3537607 -0.57413536 0.42382136 -1.0702882 -1.0075066 0.5303568 -0.6144629
0.044594966 -0.57170725 0.24133033 -0.23294789 -0.53689885 -0.6720227 -0.04774118 0.6174786
-0.004011801 -0.26929396 0.33767176 0.52998644 0.54241306 -0.067335784 -0.40741318 0.08149157
0.15291923 -0.83836496 0.27227134 0.9802617 0.44545627 0.969813 0.45218444 0.76627296
0.6539583 0.15257435 -0.8205556 -0.70153755 -0.20603713 -0.23636094 0.16230236 -0.70347023
-0.104453474 -0.5965498 -0.69700557 -0.69004333 0.58434 -0.81192845 -0.7014976 0.41112643
0.11646185 -0.8585778 -0.89829993 0.31856188 -0.44399616 -0.78867054 0.78951144 -0.40084082
-0.5423862 0.8824796 -0.8948797 -0.35224918 0.5238392 0.004378803 0.63702303 -0.36405143
-0.15302067 -0.4015389 0.99818623 -0.93052524 -0.5141838 -0.33128682 -1.0236553 0.09178951
-0.13162695 1.0310924 0.5390441 -0.9729684 0.7562877 -0.033596735 0.26386827 -0.23223427
-0.31396398 -0.3716698 -0.022919515 -0.7599522 -0.024504742 0.8247672 -0.5508436 -0.8821891
0.43682626 -0.0588812 -0.48912796 0.33233187 -0.23076165 -0.31601486 -0.68763316 -0.91929847
-0.87039167 -0.6458843 -1.0032758 0.48698002 0.74910665 -1.0223193 0.8441789 0.3804985
-0.8670597 -0.13548653 -0.95005476 0.29281172 -0.93524396 0.9696756 0.26422203 -0.0087943
-0.6703812 0.0102858115 1.0011424 -0.9738406 -0.03393841 -0.41829938 -0.5201909 -0.40839982
00000000: 3386 4b3e ce91 d13e ff86 16bf 81d6 d1be
00000010: 6153 623f 839f 2cbe 731c 89bf 0e73 4abe
00000020: b0a8 69bf b921 b33e 0d51 163f 3073 7ebf
00000030: c35d 22bf bd10 ca3e 7fa0 7a3e d4ae ad3e
00000040: 7d58 06bf 69cc 163f 5f7b 7fb8 59f3 ac3e
00000050: 84da 793e 4f4b 4ebf e437 1abf 191c 493f
00000060: 7201 60bf 02bd 2a3e c231 0bbb 6e1a 0abf
00000070: 0341 e8be b222 26bf ed88 063e dbd4 21bf
00000080: 994a 593f b0b0 2ebe 4545 5cbf 5fa1 87be
00000090: 85ee 473e 3f1e 85be fda6 853f d7c5 58bf
000000a0: 38e6 1e3f 1bb3 893e a379 2abf e27c 46be
000000b0: 12c5 e53e d8d7 773d e62d 5ebf c0e0 333e
000000c0: 46d8 7e3e a761 ffbe d8a0 70bf 004f c03e
000000d0: f097 e4be b8b9 483e 9aa3 e73d 6ce0 57be
000000e0: 54e8 93be b758 833f e0f1 56be 0c7e b23e
000000f0: c099 e9be f2dc 293e 9b81 e4be 2539 68bf
00000100: dfee 99bc 2ae1 ed3e 788b 653f 4e95 0abf
00000110: b7e1 cd3e 8431 3bbf 8e41 50bf 1e6c 2c3e
00000120: d971 72bf ff35 013f 353a 2bbf 7110 01bd
00000130: f772 f13d 79f0 02bf c54f 263f 5533 b93e
00000140: 4f28 c73e 7fac 723f f9b9 613f 1699 69bf
00000150: af7d 563f 764d 803e 1c2a 7b3f 5122 c93e
00000160: e9d1 f83d 09ff 13bf fe06 27bf 7323 17bf
00000170: 9d93 b4be 6c12 433f 9662 8cbe 2938 b13e
00000180: 4cda 0cbf 265e 28bd adf2 80bf 889d 6abf
00000190: 6b09 2d3e a7d2 9c3d bf76 663f 442c 5dbf
000001a0: 0d58 bbbe c7db 7dbf 4cb0 64bf 4122 343f
000001b0: 2333 08bf 7931 68bf 2e90 febe 10d0 c8bd
000001c0: 2f20 27bf cd1c 1ebf ab48 0fbf 71e3 bc3e
000001d0: 5357 5d3f 01d0 1fbf 2726 563f 817e 1dbe
000001e0: 8681 2e3f 8eea 4ebf 3ef9 4cbf 077a 8f3d
000001f0: cc8a f63e 1c9c 69bf 5fad a53e 903a 36bf
00000200: c678 2f3e 4076 5c3f ba29 c03e 4b10 ac3e
00000210: ea0b 41bf 55cc 22bf 7500 15bf b741 5fbe
00000220: fc13 413e 1f20 b5be 89fa 12bf 1dff d83e
00000230: 34ff 88bf faf5 80bf 77c5 073f 714d 1dbf
00000240: 36a9 363d 685b 12bf 4c1f 773e e489 6ebe
00000250: 3472 09bf ae09 2cbf 418c 43bd 1413 1e3f
00000260: 6d75 83bb e6e0 89be 50e3 ac3e 31ad 073f
00000270: 95db 0a3f 58e7 89bd 7698 d0be 0de5 a63d
00000280: dc96 1c3e 169f 56bf 2667 8b3e 6ef2 7a3f
00000290: d812 e43e aa45 783f b884 e73e 772a 443f
000002a0: d069 273f 733c 1c3e ef0f 52bf f797 33bf
000002b0: 66fb 52be 9a08 72be 9732 263e a016 34bf
000002c0: b4eb d5bd 7db7 18bf f56e 32bf aea6 30bf
000002d0: 4e97 153f 8bda 4fbf 5995 33bf 2a7f d23e
000002e0: 8d83 ee3d c1cb 5bbf fcf6 65bf 8b1a a33e
000002f0: 7753 e3be 50e6 49bf 6c1d 4a3f 023b cdbe
00000300: d2d9 0abf 2fea 613f d616 65bf 015a b4be
00000310: 531a 063f 107c 8f3b f113 233f f364 babe
00000320: 73b1 1cbe 8296 cdbe 2289 7f3f e736 6ebf
00000330: 8da1 03bf 6d9e a9be 2307 83bf 23fc bb3d
00000340: 37c9 06be d6fa 833f cbfe 093f 7514 79bf
00000350: 129c 413f bb9c 09bd be19 873e d2ce 6dbe
00000360: e3bf a0be 814b bebe b5c1 bbbc 3a8c 42bf
00000370: 2bbe c8bc f123 533f 1604 0dbf 25d7 61bf
00000380: b1a7 df3e 6a2d 71bd fb6e fabe 6727 aa3e
00000390: c84c 6cbe b3cc a1be ba08 30bf 2557 6bbf
000003a0: fdd1 5ebf ac58 25bf 576b 80bf 7255 f93e
000003b0: 74c5 3f3f 5cdb 82bf 1c1c 583f b3d0 c23e
000003c0: a0f7 5dbf fbbc 0abe ca36 73bf 6beb 953e
000003d0: 266c 6fbf a93c 783f 1c48 873e f815 10bc
000003e0: 1a9e 2bbf d285 283c 6f25 803f 9e4d 79bf
000003f0: 0103 0bbd 562b d6be 3b2b 05bf c819 d1be

shared.0.bias f4 [256]
0.65201306 -0.1679298 0.42261362 -0.7221821 0.9056412 -0.27050146 -0.7161634 -0.254033
-0.48251057 -0.5971856 0.68378514 0.77002025 -0.76336986 0.9218002 0.86380357 -0.57620025
0.9274415 0.4707302 0.29857013 0.2010268 -0.104927376 0.39388725 -0.14586313 -0.09462801
-0.027315328 -0.25462568 -0.5312391 0.45089278 0.70534843 -0.5999361 -0.72493315 0.71947634
-0.6605426 -0.7782055 0.83409935 0.16108988 -0.60057366 0.3873449 -0.86545664 -0.44887552
0.78932625 0.39511484 -0.34807578 0.85774225 0.0007935967 -0.39274582 0.18581267 -0.27011797
-0.46504277 -0.22454444 0.4498101 -0.6170325 0.24855149 -0.1911865 -0.463341 -0.37033826
0.24889804 -0.39746946 0.4433553 -0.5066949 0.33324268 0.074328795 -0.19652526 0.035430346
0.45594692 0.73938525 -0.8253371 -0.6196493 0.14020842 -0.34658813 -0.4960364 -0.066085316
-0.29090765 0.18009222 -0.28341523 -0.35311067 -0.8305847 -0.21414049 -0.07128105 0.56305873
0.8503296 -0.72744215 0.5840192 0.80909294 -0.3300907 0.86600643 -0.33569258 0.02414925
-0.011302847 -0.008117774 -0.6611935 -0.6247205 0.24806127 -0.090220675 0.18363921 -0.29863387
-0.14543912 0.05219188 -0.3010691 0.016870243 -0.008182574 -0.5295255 0.42251238 -0.6215664
0.13980567 0.8450796 -0.05870439 0.18867184 -0.45546025 -0.23745807 -0.027299961 -0.57637715
-0.1585033 -0.62407124 0.12794565 -0.3197493 0.4112079 0.28616938 -0.10171568 -0.8193424
0.9193974 -0.67833626 0.2519833 -0.7125249 0.50504506 0.95521104 -0.3164062 0.7042602
-0.31532213 0.6930541 0.59830713 -0.34769395 -0.4907203 0.15193899 -0.6526843 0.12843496
-0.0025192325 -0.2524759 -0.8460608 0.15455416 -0.3189936 0.3010778 0.017744668 -0.85346854
-0.44903448 -0.25198787 0.72268134 0.6015258 0.68731856 -0.55987483 0.17032596 0.18257974
0.14654148 0.75343925 0.35888788 0.5699548 -0.64755875 -0.025662772 0.5612951 -0.49669397
0.650141 0.618419 0.50300354 0.46851122 0.43557438 -0.7228936 -0.35952514 0.88426554
-0.24572715 0.6386575 0.6814448 -0.18156946 0.021140218 -0.44488427 -0.15990946 0.8784785
0.66420937 -0.024546282 -0.4203975 -0.17067164 -0.24211752 0.2592075 -0.48267454 -0.32798657
0.91145056 0.9044864 0.22954132 -0.25989002 0.54283243 0.73629797 -0.28633556 -0.72059566
0.30343693 0.4493629 -0.7809094 0.41327178 -0.06505751 0.6452113 -0.114016525 -0.45795265
0.1748232 -0.16652665 -0.09767556 0.054023057 0.6066857 -0.17772919 -0.5146963 -0.5634361
0.8402776 -0.19320497 -0.04875901 -0.25986135 0.6331709 -0.48774588 -0.6197903 -0.7211868
0.64000076 0.29407063 -0.040264025 0.68579453 0.57142067 -0.78012514 0.47576803 0.6798555
0.8651209 0.7453712 0.3611146 0.3295297 0.5700554 0.15920475 0.7992396 -0.056690514
-0.77405393 -0.32547194 0.26346704 -0.72189766 -0.61190546 -0.5611628 -0.66874623 -0.029476827
0.002617196 0.073168576 0.78514576 0.29548332 -0.65124243 -0.5280685 -0.83931845 0.30103192
0.48587245 0.40287706 0.74793404 -0.20399109 0.35702667 0.8573186 -0.22520898 -0.7906377
00000000: 54ea 263f caf5 2bbe d060 d83e ede0 38bf
00000010: 1ad8 673f 2b7f 8abe 7c56 37bf 9d10 82be
00000020: a00b f7be 28e1 18bf 8b0c 2f3f 0c20 453f
00000030: 356c 43bf 19fb 6b3f 3b22 5d3f dc81 13bf
00000040: ce6c 6d3f 8c03 f13e 2fde 983e f8d9 4d3e
00000050: 2ae4 d6bd 97ab c93e 255d 15be 55cc c1bd
00000060: 65c4 dfbc 4c5e 82be 49ff 07bf 6bdb e63e
00000070: b791 343f 6a95 19bf 3895 39bf 9a2f 383f
00000080: 5219 29bf 7a38 47bf 8987 553f bff4 243e
00000090: 32bf 19bf 1252 c63e 918e 5dbf 03d3 e5be
000000a0: 4911 4a3f 7e4c ca3e fd36 b2be ff94 5b3f
000000b0: 5f09 503a fb15 c9be ad45 3e3e e74c 8abe
000000c0: 161a eebe faee 65be 824d e63e d8f5 1dbf
000000d0: 4884 7e3e 65c6 43be 083b edbe fa9c bdbe
000000e0: 21df 7e3e 1e81 cbbe 77ff e23e c2b6 01bf
000000f0: c99e aa3e b239 983d eb3d 49be 691f 113d
00000100: e071 e93e 5a48 3d3f 4b49 53bf 56a1 1ebf
00000110: cc92 0f3e 0074 b1be 7cf8 fdbe bd57 87bd
00000120: d9f1 94be 186a 383e cd1b 91be ecca b4be
00000130: 33a1 54bf a547 5bbe cdfb 91bd 9e24 103f
00000140: 33af 593f a639 3abf 4882 153f b720 4f3f
00000150: a601 a9be 99b2 5d3f e6df abbe a6d4 c53c
00000160: 942f 39bc 6900 05bc fa43 29bf afed 1fbf
00000170: c603 7e3e 9ec5 b8bd eb0b 3c3e 8ae6 98be
00000180: feed 14be 27c7 553d bb25 9abe 7733 8a3c
00000190: 3410 06bc fc8e 07bf 8b53 d83e fa1e 1fbf
000001a0: 3829 0f3e 2357 583f 0474 70bd 3133 413e
000001b0: 1632 e9be 3528 73be 2ba4 dfbc 748d 13bf
000001c0: b04e 22be 22c3 1fbf 2f04 033e 2eb6 a3be
000001d0: d889 d23e cb84 923e 4f50 d0bd 6cc0 51bf
000001e0: a15d 6b3f 72a7 2dbf f503 813e 0868 36bf
000001f0: a24a 013f b688 743f feff a1be 654a 343f
00000200: e771 a1be fe6b 313f a82a 193f f104 b2be
00000210: b13f fbbe e595 1b3e 5116 27bf 7484 033e
00000220: b519 25bb 8544 81be 7197 58bf 7243 1e3e
00000230: 2153 a3be df26 9a3e 445d 913c ea7c 5abf
00000240: d9e7 e5be 8e04 81be a501 393f 98fd 193f
00000250: 1cf4 2f3f f553 0fbf ee69 2e3e 2ff6 3a3e
00000260: f80e 163e 65e1 403f 27c0 b73e 8fe8 113f
00000270: 69c6 25bf bc3a d2bc 09b1 0f3f ac4e febe
00000280: a46f 263f b550 1e3f d7c4 003f b4e0 ef3e
00000290: 9b03 df3e 8e0f 39bf ae13 b8be 3a5f 623f
000002a0: e69f 7bbe 0f7f 233f 2b73 2e3f 58ed 39be
000002b0: 402e ad3c dfc7 e3be 4ebf 23be f8e3 603f
000002c0: a009 2a3f 4915 c9bc 573e d7be 8cc4 2ebe
000002d0: a8ed 77be d8b6 843e 1e21 f7be dbed a7be
000002e0: d354 693f 6c8c 673f e10c 6b3e 4e10 85be
000002f0: 11f7 0a3f 067e 3c3f 939a 92be f578 38bf
00000300: 165c 9b3e e512 e63e aee9 47bf 5c98 d33e
00000310: df3c 85bd 912c 253f 7f81 e9bd c578 eabe
00000320: da04 333e f685 2abe 200a c8bd 4847 5d3d
00000330: c14f 1b3f a4fe 35be 23c3 03bf 593d 10bf
00000340: 6f1c 573f 86d7 45be 87b7 47bd 8c0c 85be
00000350: 7d17 223f d4b9 f9be 94aa 1ebf b39f 38bf
00000360: 17d7 233f 6d90 963e e4eb 24bd 3b90 2f3f
00000370: a048 123f 48b6 47bf de97 f33e 030b 2e3f
00000380: 9078 5d3f a6d0 3e3f 03e4 b83e 1eb8 a83e
00000390: 27ef 113f 9206 233e f79a 4c3f 5034 68bd
000003a0: 6628 46bf 42a4 a6be 27e5 863e 49ce 38bf
000003b0: d6a5 1cbf 5ea8 0fbf f432 2bbf 6379 f1bc
000003c0: 4385 2b3b 68d9 953d 50ff 483f 9749 973e
000003d0: d3b7 26bf 7f2f 07bf 93dd 56bf db20 9a3e
000003e0: 46c4 f83e e745 ce3e 9b78 3f3f 0ae3 50be
000003f0: 33cc b63e 3b79 5b3f 2f9d 66be 3b67 4abf

shared.1.weight f4 [256]
0.969678 1.077195 0.9814492 0.9998273 0.9696106 0.9998273 1.2809793 0.9998273
1.1690965 0.9998273 0.9709018 0.9537882 0.9998273 0.9358542 0.9499623 0.9998273
0.9432183 0.9886599 0.98003876 1.0714351 1.0880761 0.9921298 1.287631 1.0287421
1.0275444 0.9998273 0.9998273 0.97874385 0.963586 0.9998273 0.9998273 0.94899994
1.2288772 0.9998273 0.9629347 1.0008677 0.9998273 0.9806623 1.3362542 1.1958153
0.9562596 0.9712236 1.2469482 0.9484483 1.0159873 0.9998273 1.018749 0.9998273
0.9998273 1.2186698 0.99572754 0.9998273 0.97660893 1.274996 0.9998273 0.9998273
0.9784269 1.051737 0.9730274 0.9998273 0.9749859 1.068261 1.2993542 1.0303174
0.96914554 0.9552268 1.4757258 0.9998273 1.0442439 1.1199328 1.2605821 1.0168986
1.2712129 1.0229675 1.0508745 0.9998273 0.9998273 1.127694 1.0358094 0.9675923
0.95414954 1.2094495 0.9749488 0.95588 1.0592769 0.9447674 1.0644656 1.026742
1.0659922 1.0624506 0.9998273 0.9998273 0.9748969 1.04736 0.9923464 1.28918
1.355398 1.0324526 1.3054105 1.0345743 1.0707569 0.9998273 1.0329853 1.3459818
1.0161388 0.974573 1.0681326 1.0180287 0.9998273 1.1933109 1.1017512 0.9998273
1.2227737 0.9998273 1.0222026 1.2985027 1.006389 0.9911002 1.0723193 0.9998273
0.9571918 0.9998273 1.000292 0.9998273 0.98583114 0.96254146 1.4109161 0.97540027
0.9998273 0.96985286 0.9787725 1.4319354 1.3590697 1.0152063 0.9998273 1.0005624
1.0487181 0.9998273 0.9998273 1.0162053 1.2090508 0.99271244 1.0204785 0.9998273
0.9998273 1.1493042 0.95112854 0.9473837 0.9635362 0.9998273 0.99230057 1.01893
0.9892569 0.95540464 0.9972976 0.97720414 0.9998273 0.9998397 0.95638114 0.9998273
0.9630247 0.9678344 0.96939015 1.0284586 0.9830543 1.1655024 1.2381297 0.96639913
1.0590432 0.9602421 0.97210425 1.2052534 1.0027658 0.9998273 1.17304 0.9461243
0.95964926 1.0656371 1.2739793 1.1829529 1.068378 0.997275 1.3354547 1.2083446
0.9420324 0.952225 1.0048983 1.1523982 0.9601651 0.9464272 1.0535687 0.9998273
0.98719424 1.0275483 0.9998273 0.9731262 1.0454656 0.9605864 1.0788008 0.9998273
0.9870045 1.1724255 1.0191844 1.013929 0.96488327 1.0546246 1.0966799 0.9998273
0.9446608 1.0357953 1.0745622 1.1866568 0.9868924 0.9998273 0.9998273 0.9998273
0.9635051 0.97468925 1.2107917 0.9564204 0.9604085 1.6359329 0.97620815 0.97073454
0.95199233 0.9606494 0.98165184 0.996938 0.9578049 0.9839984 0.9611972 1.0778486
0.9998273 1.2250642 0.99463403 0.9998273 1.2996421 1.1512123 1.2301925 1.0511408
1.0484897 0.9948456 0.95617604 1.0181347 1.3879517 1.072118 0.9998273 0.9771882
0.97498226 0.97652245 0.9878629 1.0629458 0.97267854 0.9546732 1.1485668 0.9998273
00000000: d13c 783f 87e1 893f 4140 7b3f aff4 7f3f
00000010: 6638 783f aff4 7f3f 21f7 a33f aff4 7f3f
00000020: f4a4 953f aff4 7f3f 058d 783f 772b 743f
00000030: aff4 7f3f 2494 6f3f bb30 733f aff4 7f3f
00000040: c176 713f d118 7d3f d2e3 7a3f c924 893f
00000050: 1446 8b3f 38fc 7d3f 18d1 a43f d2ad 833f
00000060: 9386 833f aff4 7f3f aff4 7f3f f58e 7a3f
00000070: 92ad 763f aff4 7f3f aff4 7f3f a9f1 723f
00000080: d94b 9d3f aff4 7f3f e382 763f 6f1c 803f
00000090: aff4 7f3f af0c 7b3f 610a ab3f 7a10 993f
000000a0: 6ecd 743f 1ca2 783f 009c 9f3f 82cd 723f
000000b0: df0b 823f aff4 7f3f 5e66 823f aff4 7f3f
000000c0: aff4 7f3f 5ffd 9b3f 00e8 7e3f aff4 7f3f
000000d0: 0b03 7a3f 1233 a33f aff4 7f3f aff4 7f3f
000000e0: 2f7a 7a3f 519f 863f 5318 793f aff4 7f3f
000000f0: ad98 793f c7bc 883f 3d51 a63f 71e1 833f
00000100: ec19 783f be89 743f 95e4 bc3f aff4 7f3f
00000110: c9a9 853f f559 8f3f c15a a13f bc29 823f
00000120: 1bb7 a23f 99f0 823f 0e83 863f aff4 7f3f
00000130: aff4 7f3f 4758 903f 6795 843f 21b4 773f
00000140: 2543 743f 3ecf 9a3f 3f96 793f 8db4 743f
00000150: 6396 873f 47dc 713f 6940 883f 486c 833f
00000160: 6f72 883f 62fe 873f aff4 7f3f aff4 7f3f
00000170: d892 793f e40f 863f 6a0a 7e3f da03 a53f
00000180: af7d ad3f 6827 843f b117 a73f ee6c 843f
00000190: 900e 893f aff4 7f3f dd38 843f 2249 ac3f
000001a0: d610 823f 9e7d 793f 92b8 883f c44e 823f
000001b0: aff4 7f3f 69be 983f 2f06 8d3f aff4 7f3f
000001c0: d983 9c3f aff4 7f3f 89d7 823f 5635 a63f
000001d0: 5bd1 803f beb8 7d3f c241 893f aff4 7f3f
000001e0: 860a 753f aff4 7f3f 9109 803f aff4 7f3f
000001f0: 6e5f 7c3f 1e69 763f e698 b43f d5b3 793f
00000200: aff4 7f3f 4748 783f d690 7a3f a949 b73f
00000210: fff5 ad3f 48f2 813f aff4 7f3f 6e12 803f
00000220: 653c 863f aff4 7f3f aff4 7f3f 0413 823f
00000230: 2dc2 9a3f 6722 7e3f 0a9f 823f aff4 7f3f
00000240: aff4 7f3f 661c 933f 297d 733f bd87 723f
00000250: 4faa 763f aff4 7f3f 6907 7e3f 4c6c 823f
00000260: f13f 7d3f 6695 743f e54e 7f3f 0d2a 7a3f
00000270: aff4 7f3f 7ff5 7f3f 65d5 743f aff4 7f3f
00000280: c988 763f ffc3 773f f429 783f 88a4 833f
00000290: 72a9 7b3f 2f2f 953f 097b 9e3f ef65 773f
000002a0: ba8e 873f 6dd2 753f d3db 783f be45 9a3f
000002b0: a15a 803f aff4 7f3f 2d26 963f 3435 723f
000002c0: 93ab 753f cc66 883f c111 a33f 006b 973f
000002d0: 9cc0 883f 6a4d 7f3f 2ef0 aa3f 09ab 9a3f
000002e0: 0929 713f 05c5 733f 82a0 803f c981 933f
000002f0: 61cd 753f 0e49 723f 57db 863f aff4 7f3f
00000300: c3b8 7c3f b486 833f aff4 7f3f cc1e 793f
00000310: d1d1 853f fee8 753f 2516 8a3f aff4 7f3f
00000320: 54ac 7c3f 0a12 963f a274 823f 6dc8 813f
00000330: 9702 773f f0fd 863f 0260 8c3f aff4 7f3f
00000340: 4ad5 713f f194 843f 418b 893f 5fe4 973f
00000350: fba4 7c3f aff4 7f3f aff4 7f3f aff4 7f3f
00000360: 45a8 763f 3c85 793f 39fb 9a3f f8d7 743f
00000370: 55dd 753f 4066 d13f c7e8 793f 0f82 783f
00000380: c5b5 733f 1eed 753f 894d 7b3f 5437 7f3f
00000390: b432 753f 52e7 7b3f 0511 763f f1f6 893f
000003a0: aff4 7f3f e7ce 9c3f 56a0 7e3f aff4 7f3f
000003b0: ac5a a63f ed5a 933f f376 9d3f c88b 863f
000003c0: e934 863f 34ae 7e3f f4c7 743f 3d52 823f
000003d0: 67a8 b13f 2a3b 893f aff4 7f3f 0229 7a3f
000003e0: 7098 793f 60fd 793f 95e4 7c3f 9c0e 883f
000003f0: 7601 793f 7665 743f 3d04 933f aff4 7f3f

shared.1.bias f4 [256]
-0.038552783 0.02827543 -0.013446442 0.0 -0.049773704 0.0 0.060331125 0.0
0.06152734 0.0 -0.052557755 -0.0424868 0.0 -0.07428493 -0.057471007 0.0
-0.065130614 -0.01370577 -0.029323595 0.015444779 0.012843036 -0.04578756 0.009448235 -0.030769972
-0.030284943 -0.0086645195 0.0 -0.017670374 -0.0398387 0.0 0.0 -0.061126936
0.0012027036 0.0 -0.04942314 -0.00072456826 0.0 -0.025599528 0.066708885 0.08088976
-0.061335884 -0.046337504 0.07753011 -0.06367849 -0.028350573 0.0 0.045098424 0.0
0.0 0.041555446 -0.027102407 0.0 -0.00929031 0.01050081 0.0 0.0
-0.027607562 0.07364969 -0.03130957 0.0 0.01709642 0.033199895 0.049625557 -0.05001103
-0.035584856 -0.052576534 0.059528235 0.0 0.019118672 0.01368792 0.069897324 -0.0133632785
0.07904005 -0.008518422 -0.03095161 0.0 0.0 0.0070188367 -0.028298002 -0.044190392
-0.047205124 -0.017394235 -0.02342012 -0.046809994 0.065222494 -0.06543547 -0.01652197 -0.044649694
0.005624698 -0.019849867 0.0 0.0 -0.011211961 -0.01621298 -0.006832158 0.024717368
0.051778335 -0.001499622 0.057538923 -0.04657458 -0.0076480964 0.0 0.038229354 0.096746795
0.012049496 -0.026110582 0.030480452 0.069938704 0.0 -0.012791147 0.03486992 0.0
-0.00028778517 0.0 0.0088880975 0.02629815 0.02687032 -0.017206099 0.006287776 0.0
-0.052621365 0.0 -0.01801305 0.0 -0.04394232 -0.048870943 0.044573188 -0.04739767
0.0 -0.02523003 -0.049377963 0.084746785 0.079590924 -0.0011177725 0.0 -0.0048561236
-0.004663882 0.0 0.0 0.0016402527 0.046619244 -0.05967902 -0.06603998 0.0
0.0 0.01363458 -0.059754927 -0.05728018 -0.04452951 0.0 -0.019459652 0.040532377
-0.016295794 -0.044579495 -0.025692176 -0.03576193 0.0 0.0007292337 -0.038010977 0.0
-0.04540801 -0.0051758937 -0.044103067 0.015210767 -0.045092486 -0.020246053 0.005520278 -0.057418454
0.020536419 -0.05391656 -0.0170988 0.014684873 -0.010625607 0.0 -0.0064484063 -0.060052015
-0.03846569 0.01090244 0.059683643 -0.00078221643 0.029808136 -0.010420255 0.09801543 -0.0026013404
-0.063832924 -0.05501288 -0.023961367 -0.013832404 -0.04453681 -0.05042446 0.011612893 0.0
0.004540546 -0.024229795 0.0 -0.0348883 -0.026804158 -0.04384777 0.022199804 0.0
-0.017677419 0.022821156 -0.026586551 -0.051024854 -0.052401714 0.048955306 0.009018343 0.0
-0.057651084 0.04622858 -0.04003387 -0.011822932 -0.02142715 0.0 0.0 0.0
-0.045437865 -0.019669792 -0.005418077 -0.052827787 -0.04235353 0.043127134 -0.030672843 -0.03887965
-0.054893814 -0.05276957 0.0060617556 -0.014651308 -0.049913116 -0.0057198405 -0.05062024 0.022010008
0.0 0.07035146 -0.03793903 0.0 0.051148348 0.062687576 0.017008718 -0.010653561
-0.046767145 -0.0049282475 -0.01099659 -0.013278793 0.095289856 0.0032897082 0.0 -0.029967971
-0.011487032 -0.03230132 -0.014503398 -0.01995326 -0.03400309 -0.047582448 0.017236136 0.0
00000000: 86e9 1dbd e0a1 e73c 774e 5cbc 0000 0000
00000010: 83df 4bbd 0000 0000 c51d 773d 0000 0000
00000020: 1804 7c3d 0000 0000 cd46 57bd a406 2ebd
00000030: 0000 0000 b322 98bd b866 6bbd 0000 0000
00000040: 3363 85bd 2a8e 60bc 0938 f0bc 190c 7d3c
00000050: 996b 523c bd8b 3bbd c5cc 1a3c 4f11 fcbc
00000060: 2118 f8bc a1f5 0dbc 0000 0000 76c1 90bc
00000070: e82d 23bd 0000 0000 0000 0000 3d60 7abd
00000080: 09a4 9d3a 0000 0000 eb6f 4abd f4f0 3dba
00000090: 0000 0000 1ab6 d1bc ab9e 883d 88a9 a53d
000000a0: 563b 7bbd 65cc 3dbd 1bc8 9e3d de69 82bd
000000b0: 763f e8bc 0000 0000 20b9 383d 0000 0000
000000c0: 0000 0000 0b36 2a3d de05 debc 0000 0000
000000d0: 6236 18bc 970b 2c3c 0000 0000 0000 0000
000000e0: 4129 e2bc a6d5 963d 773e 00bd 0000 0000
000000f0: cb0d 8c3c 9dfc 073d 2b44 4b3d 5ed8 4cbd
00000100: 6dc1 11bd 7e5a 57bd e1d3 733d 0000 0000
00000110: c39e 9c3c 4c43 603c 5426 8f3d a7f1 5abc
00000120: c0df a13d da90 0bbc 3b8e fdbc 0000 0000
00000130: 0000 0000 45fe e53b 36d1 e7bc fc00 35bd
00000140: 295a 41bd 5b7e 8ebc 8ddb bfbc d6bb 3fbd
00000150: 5f93 853d 0803 86bd 1559 87bc 99e2 36bd
00000160: 634f b83b 309c a2bc 0000 0000 0000 0000
00000170: 5fb2 37bc 15d1 84bc 4ce0 dfbb 147c ca3c
00000180: 8515 543d f78e c4ba efad 6b3d fdc4 3ebd
00000190: e29c fabb 0000 0000 6296 1c3d 2f23 c63d
000001a0: 406b 453c dce5 d5bc 24b2 f93c 063c 8f3d
000001b0: 0000 0000 f691 51bc c3d3 0e3d 0000 0000
000001c0: dfe1 96b9 0000 0000 629f 113c 386f d73c
000001d0: 251f dc3c cef3 8cbc b009 ce3b 0000 0000
000001e0: 8089 57bd 0000 0000 1b90 93bc 0000 0000
000001f0: ddfc 33bd e62c 48bd 6092 363d 0f24 42bd
00000200: 0000 0000 35af cebc 8c40 4abd b98f ad3d
00000210: 9100 a33d 3982 92ba 0000 0000 1e20 9fbb
00000220: 7ad3 98bb 0000 0000 0000 0000 bffd d63a
00000230: d2f3 3e3d fd71 74bd f83f 87bd 0000 0000
00000240: 0000 0000 9363 5f3c 95c1 74bd 9f9e 6abd
00000250: 9364 36bd 0000 0000 d969 9fbc 4705 263d
00000260: c27e 85bc fd98 36bd 6678 d2bc 1a7b 12bd
00000270: 0000 0000 0c2a 3f3a 66b1 1bbd 0000 0000
00000280: c0fd 39bd 8b9a a9bb 6ba5 34bd 9536 793c
00000290: e6b2 38bd 0ddb a5bc 73e3 b43b 9d2f 6bbd
000002a0: fe3b a83c 9cd7 5cbd c812 8cbc d298 703c
000002b0: 0717 2ebc 0000 0000 274d d3bb 1af9 75bd
000002c0: 338e 1dbd 26a0 323c d676 743d a80d 4dba
000002d0: 3130 f43c b8b9 2abc 50bc c83d 407b 2abb
000002e0: d6ba 82bd 3055 61bd a14a c4bc 4fa1 62bc
000002f0: 3b6c 36bd e189 4ebd 0144 3e3c 0000 0000
00000300: dcc8 943b 907d c6bc 0000 0000 09e7 0ebd
00000310: 6594 dbbc b899 33bd 5ddc b53c 0000 0000
00000320: 3cd0 90bc 6ff3 ba3c 0acc d9bc 70ff 50bd
00000330: 2ea3 56bd 5c85 483d acc1 133c 0000 0000
00000340: 8b23 6cbd 2e5a 3d3d 8efa 23bd f9b4 41bc
00000350: fe87 afbc 0000 0000 0000 0000 0000 0000
00000360: 0e1d 3abd 8b22 a1bc 208a b1bb f361 58bd
00000370: e57a 2dbd 14a6 303d 9d45 fbbc 4540 1fbd
00000380: 56d8 60bd e824 58bd b1a1 c63b 0a0c 70bc
00000390: b271 4cbd 806d bbbb 2b57 4fbd 554e b43c
000003a0: 0000 0000 6d14 903d f565 1bbd 0000 0000
000003b0: ee80 513d 5862 803d de55 8b3c 468c 2ebc
000003c0: e88e 3fbd 237d a1bb 0b2b 34bc 4b8f 59bc
000003d0: 5427 c33d 2598 573b 0000 0000 647f f5bc
000003e0: 1b34 3cbc 644e 04bd a99f 6dbc 0575 a3bc
000003f0: d346 0bbd d0e5 42bd cc32 8d3c 0000 0000

shared.4.weight f4 [128, 256]
0.02477143 -0.05954203 -0.013953099 -0.024982264 -0.022188406 -0.047473725 -0.12186756 -0.04460753
0.013288149 -0.0068095694 0.035595987 -0.048796434 -0.005831204 0.02174489 -0.019644054 -0.00802116
-0.0064378357 -0.0465712 0.038942926 0.023479085 -0.020161524 -0.006924806 0.06593256 0.09904325
-0.040227626 0.06177319 0.008040494 -0.052520584 0.025466975 0.008072137 -0.014059416 -0.054096293
-0.10515197 -0.009995974 -0.04451012 -0.033279847 0.043516252 -0.022835515 -0.17240053 0.07914256
0.053471405 -0.043454196 -0.03425684 0.021844985 0.016744351 -0.03976645 -0.04803182 -0.01773536
0.05662511 -0.014726846 0.029583354 0.004959799 0.0559528 -0.06314695 0.03202532 0.03992707
-0.044105317 0.033717252 -0.040284164 -0.040500652 0.044936717 0.018512463 -0.061391585 0.042175
0.05592428 0.01281731 -0.015269647 -0.01511158 0.031125309 -0.016039172 -0.050874658 -0.006165289
0.060649816 -0.04137938 0.035271898 0.046500143 0.06234887 -0.03688663 0.053683415 0.051898096
-0.04022189 -0.07600498 0.053540763 0.0008441062 0.015683344 0.020041648 -0.0008181788 0.08894802
0.082227856 0.06806596 0.0477718 0.03831405 0.02012082 0.008219944 -0.02155585 -0.15371439
0.012602593 0.0129733365 0.06116264 -0.022266155 0.038133215 0.05879366 -0.019732753 -0.08836753
0.03564872 0.017569276 0.036742784 -0.044899203 0.055151258 -0.037573755 0.07455219 -0.02291113
0.022525484 -0.014443464 -0.0040766103 -0.13389763 -0.043508094 -0.007943999 -0.011311695 0.009520411
-0.011413732 0.0039127017 0.008843421 -0.011895298 -0.05904143 0.047130343 -0.12060166 0.048087995
-0.046557676 0.009277144 -0.024283197 -0.049753122 -0.14736423 0.0014145661 0.007870941 0.0034401112
-0.011389004 -0.02048592 -0.051282804 0.0006845838 -0.021309242 0.044507217 -0.0015400541 0.036748666
0.05572513 0.071331754 0.014551783 -0.0005509221 0.0023981247 -0.009528815 -0.046244413 -0.058411937
-0.0062903203 -0.053531863 -0.01426345 0.019338662 -0.054475065 -0.0015477394 0.04903774 0.020991897
0.05028959 -0.024516778 0.022670243 0.033701804 -0.02509213 -0.07603945 -0.12808657 -0.019167565
0.047140468 -0.020599507 -0.040224183 0.06097853 -0.026827028 0.018381594 -0.026847426 0.015233739
0.04473037 -0.03996777 -0.035367597 0.055458594 0.011169474 0.044585824 -0.13552445 -0.07814257
0.0457969 0.030171018 -0.05802132 -0.063607454 -0.010404307 -0.015901817 0.050176825 0.031002497
-0.02789009 0.008783267 0.025293438 -0.029091321 0.019758126 0.010937604 0.076462135 -0.0017380248
-0.0041280626 -0.101826325 0.08962868 0.0005553669 0.003412844 -0.08023164 0.013220177 -0.052527558
-0.048833374 0.033160396 -0.0052838447 -0.036311835 0.013420185 -0.023561513 -0.02941559 0.02749431
0.033077072 0.044657424 -0.00399761 0.008122593 -0.046010587 0.119865604 0.06566674 0.06278846
-0.031713914 -0.025939742 -0.037009794 0.0049002864 0.04446698 0.045611627 -0.055307236 0.0002711827
0.009280807 0.007878822 0.058600776 0.052536663 -0.12859258 -0.028054234 -0.120552935 0.013154479
0.010708998 0.0090722535 0.034031037 0.0066214143 -0.11236395 0.022593832 0.03756651 -0.01533021
-0.0127721615 0.015481781 -0.043556996 0.031406194 -0.055014197 -0.045891695 0.034107238 0.018962307
00000000: 74ed ca3c 58e2 73bd 8a9b 64bc 9ba7 ccbc
00000010: 76c4 b5bc cf73 42bd b395 f9bd 63b6 36bd
00000020: 89b6 593c cf22 dfbb 19cd 113d c5de 47bd
00000030: af13 bfbb 5722 b23c 91ec a0bc 2f6b 03bc
00000040: 7bf4 d2bb 71c1 3ebd 9e82 1f3d 3657 c03c
00000050: c829 a5bc 7ce9 e2bb a607 873d 30d7 ca3d
00000060: b9c5 24bd e205 7d3d 47bc 033c d31f 57bd
00000070: 1ea0 d03c ff40 043c 7759 66bc 1394 5dbd
00000080: eb59 d7bd 27c6 23bc 3e50 36bd 7350 08bd
00000090: 193e 323d 8c11 bbbc c489 30be 7f15 a23d
000000a0: d504 5b3d 07fd 31bd e650 0cbd 41f4 b23c
000000b0: 732b 893c 25e2 22bd 04bd 44bd bf49 91bc
000000c0: bbef 673d de48 71bc ca58 f23c cf85 a23b
000000d0: c32e 653d 3053 81bd fb2c 033d 918a 233d
000000e0: c7a7 34bd 1a1b 0a3d 0201 25bd 03e4 25bd
000000f0: 900f 383d 73a7 973c be75 7bbd b1bf 2c3d
00000100: dc10 653d b2ff 513c 8b2d 7abc 8f96 77bc
00000110: 81fa fe3c 9564 83bc f261 50bd 3106 cabb
00000120: f16b 783d 6d7d 29bd 4479 103d ef76 3e3d
00000130: 8761 7f3d 6f16 17bd 24e3 5b3d 1993 543d
00000140: b5bf 24bd 80a8 9bbd 8f4d 5b3d 0247 5d3a
00000150: 5b7a 803c 622e a43c 0d7b 56ba 612a b63d
00000160: 1467 a83d 2b66 8b3d 5dac 433d 31ef 1c3d
00000170: 6bd4 a43c f2ac 063c e595 b0bc 4e67 1dbe
00000180: 1b7b 4e3c 1e8e 543c ad85 7a3d 8367 b6bc
00000190: 9331 1c3d 9fd1 703d 95a6 a1bc 09fa b4bd
000001a0: 6404 123d 71ed 8f3c 9a7f 163d 3ae8 37bd
000001b0: 49e6 613d f0e6 19bd d2ae 983d 1fb0 bbbc
000001c0: 5d87 b83c 47a4 6cbc 1695 85bb 761c 09be
000001d0: 8b35 32bd 8c27 02bc b054 39bc 7ffb 1b3c
000001e0: a900 3bbc 1f36 803b ffe3 103c 7fe4 42bc
000001f0: 6dd5 71bd bf0b 413d 01fe f6bd ebf7 443d
00000200: 43b3 3ebd 2aff 173c 8eed c6bc eec9 4bbd
00000210: a6e6 16be f668 b93a 1ff5 003c 7d73 613b
00000220: f298 3abc 17d2 a7bc eb0d 52bd a475 333a
00000230: b890 aebc 334d 363d a4db c9ba c585 163d
00000240: 0940 643d 6216 923d 9a6a 6e3c c26b 10ba
00000250: db29 1d3b bf1e 1cbc c86a 3dbd 5b41 6fbd
00000260: 081f cebb 3a44 5bbd 3fb1 69bc 1d6c 9e3c
00000270: 3f21 5fbd 84dd caba ccdb 483d 33f7 ab3c
00000280: 75fc 4d3d 69d7 c8bc f2b6 b93c e70a 0a3d
00000290: 038e cdbc 92ba 9bbd 2029 03be 4c05 9dbc
000002a0: 5d16 413d 4cc0 a8bc 1dc2 24bd a0c4 793d
000002b0: 5bc4 dbbc ff94 963c 22ef dbbc ef96 793c
000002c0: 3137 373d 3fb5 23bd 9ddd 10bd 8d28 633d
000002d0: 2b00 373c a09f 363d ecc6 0abe 3609 a0bd
000002e0: 8895 3b3d 3629 f73c c3a7 6dbd a044 82bd
000002f0: d476 2abc 8744 82bc 3786 4d3d f3f8 fd3c
00000300: c279 e4bc b1e7 0f3c 2f34 cf3c ec50 eebc
00000310: cbdb a13c a333 333c 2e98 9c3d 6fce e3ba
00000320: b344 87bb 528a d0bd 3e8f b73d 0b96 113a
00000330: 05aa 5f3b 7c50 a4bd 7199 583c 2327 57bd
00000340: 8105 48bd 32d3 073d 1a24 adbb b8bb 14bd
00000350: 56e0 5b3c 1304 c1bc f7f8 f0bc bf3b e13c
00000360: d37b 073d b4ea 363d 62fe 82bb a014 053c
00000370: 9975 3cbd 197c f53d 497c 863d 3c97 803d
00000380: 73e6 01bd 957f d4bc 9597 17bd 9592 a03b
00000390: 0223 363d 42d3 3a3d d789 62bd 872d 8e39
000003a0: 870e 183c 2d16 013c 5e07 703d af30 573d
000003b0: c6ad 03be fed1 e5bc 75e4 f6bd e285 573c
000003c0: cb74 2f3c caa3 143c 2164 0b3d 73f8 d83b
000003d0: 121f e6bd b316 b93c 57df 193d 902b 7bbc
000003e0: 5442 51bc 4ca7 7d3c d268 32bd c8a3 003d
000003f0: 9156 61bd eef8 3bbd 08b4 0b3d d756 9b3c

shared.4.bias f4 [128]
-0.035311945 0.062916204 0.0047684344 -0.0076704375 -0.008013597 0.043262757 0.020502368 -0.0178378
-0.026924726 -0.0059921932 -0.043428473 -0.0066076056 -0.017822236 -0.052761506 0.047358338 0.015614091
0.043071505 0.049623944 -0.049793605 0.03626095 0.01543464 0.05401243 -0.039406724 0.05029648
0.053326853 0.06327311 -0.06579214 0.017741514 0.03678437 -0.025817387 0.042797178 -0.036996182
0.030885931 -0.027013006 -0.023321496 -0.046983585 0.024236022 -0.023851527 0.056368582 0.011687424
0.0050751613 0.024866387 0.044962544 -0.022321805 0.023190403 0.026032228 -0.0097290315 0.031152317
-0.0325353 -0.0036810578 0.034330145 -0.016357403 -0.04692251 -0.04760278 -0.029567327 0.055118054
-0.058955923 0.03741526 -0.031348318 0.024840817 0.051425043 -0.042739306 0.03531091 -0.022340322
-0.05042418 0.01911604 -0.038491275 0.046248935 0.026927566 0.0020681757 -0.0032634323 -0.04880258
-0.020350866 -0.06029986 0.036930967 -0.012570772 0.02354948 0.042014167 0.03921675 0.020720435
0.052974477 -0.00018504093 -0.041099757 0.015806202 -0.057572734 0.055447843 -0.004770774 -0.021668283
-0.0053706234 0.031696122 -0.038823094 -0.002356893 -0.04363398 0.02797581 -0.049380638 -0.019684836
0.033149786 -0.04046296 -0.010964646 -0.030363593 -0.0006597267 -0.023375835 0.0362683 0.011513508
0.033460334 -0.059856787 -0.027637113 -0.010286047 0.058453243 -0.056835443 0.014997307 0.011812949
-0.038006183 -0.014133416 -0.032853533 -0.04872859 3.203022e-05 0.008078606 -0.02263357 -0.046673488
0.0521357 0.031066332 -0.040190503 0.06157113 0.033768997 0.052409615 0.0037287732 0.005766316
00000000: 42a3 10bd 36da 803d 8740 9c3b 4b58 fbbb
00000010: 764b 03bc 4a34 313d 95f4 a73c 9420 92bc
00000020: 3e91 dcbc 295a c4bb 0ee2 31bd 9d84 d8bb
00000030: f0ff 91bc 731c 58bd d1fa 413d 3fd2 7f3c
00000040: bf6b 303d 7a42 4b3d 61f4 4bbd 5d86 143d
00000050: 93e1 7c3c 233c 5d3d f268 21bd af03 4e3d
00000060: 426d 5a3d 5595 813d 08be 86bd a756 913c
00000070: 35ab 163d fc7e d3bc 184c 2f3d 4f89 17bd
00000080: 7e04 fd3c 614a ddbc b90c bfbc dc71 40bd
00000090: 9f8a c63c 4764 c3bc bee2 663d 9c7c 3f3c
000000a0: 8a4d a63b 98b4 cb3c a52a 383d 38dc b6bc
000000b0: cdf9 bd3c 8a41 d53c 8466 1fbc 2533 ff3c
000000c0: bc43 05bd e73d 71bb c49d 0c3d f6ff 85bc
000000d0: d131 40bd 22fb 42bd 2e37 f2bc 78c3 613d
000000e0: c47b 71bd be40 193d 1867 00bd f87e cb3c
000000f0: 11a3 523d 690f 2fbd 2ca2 103d 0d03 b7bc
00000100: 9689 4ebd 3e99 9c3c 07a9 1dbd 866f 3d3d
00000110: 3397 dc3c 3b8a 073b 4fdf 55bb 37e5 47bd
00000120: dcb6 a6bc fcfc 76bd ed44 173d a4f5 4dbc
00000130: d7ea c03c 0c17 2c3d bea1 203d e7bd a93c
00000140: c4fb 583d 8c07 42b9 3858 28bd 027c 813c
00000150: 63d1 6bbd 471d 633d 2754 9cbb af81 b1bc
00000160: 0efc afbb cbd3 013d f704 1fbd 1a76 1abb
00000170: 8bb9 32bd 872d e53c 5a43 4abd 1842 a1bc
00000180: 12c8 073d 7dbc 25bd 0fa5 33bc 12bd f8bc
00000190: 82f1 2cba ae7e bfbc 128e 143d 27a3 3c3c
000001a0: b40d 093d 642c 75bd 3a67 e2bc cf86 28bc
000001b0: ab6c 6f3d 48cc 68bd 44b7 753c 198b 413c
000001c0: 5fac 1bbd d88f 67bc 6d91 06bd a197 47bd
000001d0: 3058 0638 215c 043c 096a b9bc b32c 3fbd
000001e0: 3e8c 553d d27e fe3c cc9e 24bd 0232 7c3d
000001f0: 5c51 0a3d 77ab 563d 6f5e 743b 5df3 bc3b

shared.5.weight f4 [128]
0.9671743 0.97384167 1.0134794 0.9193046 0.9806734 0.9865517 0.9831584 1.0961239
0.940407 0.9996163 0.9292339 0.99499655 0.9890608 0.9782516 0.9819325 1.003719
0.9821582 0.97892267 1.0436516 0.975815 1.0053495 0.98332196 1.0927826 0.98543346
0.9767372 1.0142584 0.9923726 0.9906131 0.9743747 1.0008049 0.98633105 0.995216
0.98989713 0.9578714 0.9478479 0.98913884 0.9919248 1.0068824 0.9880789 0.98234946
1.013725 0.98608494 1.0493244 0.9733347 0.97691596 0.97713494 0.9782484 0.99859315
0.96916234 1.1042628 0.9842767 1.0092939 0.99095875 0.99378216 0.9826533 0.9579085
0.9801478 0.99631363 0.9844534 0.9913913 0.97256917 0.961569 0.9930032 1.0732272
1.0045131 0.97534275 0.9810318 0.98416835 0.9857126 1.0009803 0.9892923 0.9856494
1.0069284 1.0330039 0.95930845 0.985982 0.97505563 1.0385405 0.9076702 0.9946022
1.0905094 0.9872016 0.98762816 1.007014 1.0098258 0.9834225 0.9945779 1.0556984
0.97794515 0.9302834 1.0455066 1.0040374 0.9380238 0.9862322 0.97293526 0.98195505
0.92658234 0.9881993 1.0193149 1.0158746 1.1539841 0.9851505 0.99553525 1.0106277
0.99076 0.98688895 0.98977137 0.99638927 1.0010722 0.95082694 0.9613891 0.9958153
0.9817375 0.9949643 1.0732936 1.0150928 0.9482313 1.0447736 0.9538498 0.97825843
1.0261682 0.98712456 1.0773882 0.98890775 0.98171484 1.0103326 1.0057117 1.1774117
00000000: bc98 773f b04d 793f b1b9 813f 8c57 6b3f
00000010: 690d 7b3f a78e 7c3f 45b0 7b3f ca4d 8c3f
00000020: 83be 703f dbe6 7f3f 46e2 6d3f 18b8 7e3f
00000030: 1733 7d3f b26e 7a3f ee5f 7b3f dd79 803f
00000040: b86e 7b3f ad9a 7a3f 6096 853f 03cf 793f
00000050: 4baf 803f fdba 7b3f 4de0 8b3f 5e45 7c3f
00000060: 730b 7a3f 38d3 813f 210c 7e3f d298 7d3f
00000070: 9f70 793f 601a 803f 3180 7c3f 7ac6 7e3f
00000080: e669 7d3f 0f37 753f 29a6 723f 3438 7d3f
00000090: c9ee 7d3f 86e1 803f bdf2 7c3f 417b 7b3f
000000a0: bec1 813f 1070 7c3f 4350 863f 772c 793f
000000b0: 2a17 7a3f 8425 7a3f 7d6e 7a3f cda3 7f3f
000000c0: 061b 783f 7c58 8d3f 8ff9 7b3f 8b30 813f
000000d0: 79af 7d3f 8268 7e3f 2b8f 7b3f 7e39 753f
000000e0: f7ea 7a3f 690e 7f3f 2305 7c3f d2cb 7d3f
000000f0: 4bfa 783f 6329 763f 7535 7e3f 825f 893f
00000100: e393 803f 10b0 793f e624 7b3f 75f2 7b3f
00000110: a957 7c3f 1f20 803f 4342 7d3f 8553 7c3f
00000120: 08e3 803f 7939 843f 3d95 753f 5169 7c3f
00000130: 3f9d 793f e5ee 843f 135d 683f 409e 7e3f
00000140: d095 8b3f 3eb9 7c3f 33d5 7c3f d6e5 803f
00000150: f941 813f 94c1 7b3f a89c 7e3f 2021 873f
00000160: 9d5a 7a3f 0e27 6e3f 29d3 853f 4c84 803f
00000170: 5422 703f b779 7c3f 4912 793f 6861 7b3f
00000180: 8034 6d3f a1fa 7c3f e978 823f 2e08 823f
00000190: c0b5 933f d332 7c3f 66db 7e3f 405c 813f
000001a0: 73a2 7d3f c1a4 7c3f a861 7d3f 5e13 7f3f
000001b0: 2223 803f 6569 733f 991d 763f c0ed 7e3f
000001c0: 2653 7b3f fbb5 7e3f af61 893f 90ee 813f
000001d0: 49bf 723f 24bb 853f 802f 743f 256f 7a3f
000001e0: 7b59 833f 32b4 7c3f dbe7 893f 0f29 7d3f
000001f0: aa51 7b3f 9452 813f 29bb 803f 6db5 963f

shared.5.bias f4 [128]
-0.020603133 -0.0118234195 -0.005354385 -0.053954653 -0.028979385 -0.013951186 -0.015710536 0.005087266
-0.04277333 -0.014425426 -0.04387738 -0.014024548 -0.012412348 -0.008385297 -0.0076411823 -0.013349384
-0.0075259763 -0.009437543 0.0023495427 -0.03184299 -0.031458486 -0.012807467 0.00026545516 -0.00824456
-0.01760546 -0.010904719 -0.012138925 -0.010328996 -0.0104503315 -0.02336019 -0.008410403 -0.038113315
-0.0051804087 -0.024353752 -0.055334594 -0.01606867 -0.0096115 -0.0026416604 -0.011449268 -0.010270188
-0.0123916855 -0.016269803 -0.019771762 -0.02678087 -0.011905154 -0.009120488 -0.006948484 -0.010452967
-0.025138333 0.0047152024 -0.012587838 -0.009043122 -0.0063319006 -0.00427699 -0.0048137293 -0.042708974
-0.022692729 -0.054550234 -0.005934775 -0.009776161 -0.0031185262 -0.006384981 -0.019739779 0.006191422
-0.030397354 0.0002777282 -0.0069895796 -0.0046787895 -0.009828335 -0.015275248 -0.009043906 -0.0078994855
-0.0058228886 -0.026841592 -0.03681577 -0.009311023 -0.017072873 -0.0039928867 -0.02776421 -0.011730051
0.004488851 -0.022495734 -0.011308365 -0.016455622 -0.013756128 -0.0056182463 -0.013408329 -0.004212589
-0.011095826 -0.038597498 -0.003472688 -0.0110042235 -0.040844932 -0.0108016925 -0.008841435 -0.0045830333
-0.048303626 -0.0095827505 -0.0046455753 -0.011713293 0.0016570002 -0.01326839 -0.007685186 -0.014955867
-0.0107025625 -0.0059920154 -0.006668569 -0.010392951 -0.01212022 -0.040724397 -0.031224895 -0.0067088413
-0.010504741 -0.013595869 -0.004867413 -0.0025529505 -0.04407145 -0.0152564915 -0.040881824 -0.00845503
-0.015795281 -0.010081471 0.0009402179 0.0013545176 -0.008819104 -0.006528813 -0.0155258095 -0.017536014
00000000: e7c7 a8bc 04b7 41bc d673 afbb 8eff 5cbd
00000010: 2d66 edbc 8493 64bc 62b3 80bc 15b3 a63b
00000020: 1633 2fbd 9f58 6cbc c5b8 33bd 38c7 65bc
00000030: 295d 4bbc 7c62 09bc e262 fabb 60b7 5abc
00000040: 779c f6bb ed9f 1abc c9fa 193b cc6d 02bd
00000050: 9dda 00bd 69d6 51bc ca2c 8b39 3114 07bc
00000060: 5339 90bc b5a9 32bc 57e2 46bc f33a 29bc
00000070: de37 2bbc df5d bfbc c9cb 09bc b51c 1cbd
00000080: 6bc0 a9bb 8581 c7bc 87a6 62bd 72a2 83bc
00000090: 8e79 1dbc b51f 2dbb b695 3bbc 4a44 28bc
000000a0: 7f06 4bbc 4048 85bc 64f8 a1bc 8e63 dbbc
000000b0: d60d 43bc 196e 15bc 1cb0 e3bb ec42 2bbc
000000c0: e8ee cdbc fc81 9a3b 383d 4ebc 9a29 14bc
000000d0: d57b cfbb fe25 8cbb 7dbc 9dbb 9bef 2ebd
000000e0: 1ae6 b9bc 1170 5fbd 8078 c2bb 312c 20bc
000000f0: 3060 4cbb 1a39 d1bb 51b5 a1bc 6ae1 ca3b
00000100: df03 f9bc 0c9c 9139 d808 e5bb 8850 99bb
00000110: 0607 21bc 0945 7abc e42c 14bc d86c 01bc
00000120: eecd bebb e6e2 dbbc 22cc 16bd 438d 18bc
00000130: 69dc 8bbc c3d6 82bb c571 e3bc 662f 40bc
00000140: 3617 933b f948 b8bc b846 39bc f1cd 86bc
00000150: 6261 61bc 4419 b8bb 9cae 5bbc c209 8abb
00000160: 44cb 35bc 6918 1ebd 0996 63bb 0f4b 34bc
00000170: 044d 27bd 95f9 30bc abdb 10bc 452d 96bb
00000180: 06da 45bd f800 1dbc e939 98bb 1de9 3fbc
00000190: b32f d93a a963 59bc 03d4 fbbb 7409 75bc
000001a0: cd59 2fbc ab58 c4bb 0384 dabb 3247 2abc
000001b0: e393 46bc a0ce 26bd 5acb ffbc d7d5 dbbb
000001c0: 141c 2cbc 35c1 5ebc d27e 9fbb 674f 27bb
000001d0: 4484 34bd 5df6 79bc b373 27bd f786 0abc
000001e0: 1b65 81bc c12c 25bc f578 763a 128a b13a
000001f0: 017e 10bc a7ef d5bb f75f 7ebc b0a7 8fbc

rent_branch.0.weight f4 [64, 128]
0.026101025 -0.044782367 0.026778944 0.04974649 0.014320427 0.042509444 0.056614168 0.021344293
-0.008650522 -0.02264566 -0.0356696 0.08009432 -0.033651922 -0.06802532 0.026553288 -0.011573296
0.058496404 -0.03491564 -0.007007463 -0.038613223 -0.00054053945 -0.0047049676 0.07415269 0.018782137
-0.046348404 0.015121348 -0.0084515745 0.052787002 -0.050330646 0.061794147 0.061851274 0.10430101
0.046550505 0.072118066 0.0031089243 0.02077592 0.0012307934 0.06259548 0.027255563 -0.022634495
0.013578925 -0.0054697148 -0.01854231 -0.06414417 -0.032302793 -0.010815069 0.09272927 -0.025430093
-0.082152225 0.030720092 -0.04390941 0.04921874 -0.042772118 -0.052095845 0.028405918 0.05855189
0.060820498 0.07396246 0.07602632 0.0008389687 0.0549357 0.050339136 0.02804157 0.024163248
-0.024105733 0.009420803 -0.023576083 0.016128078 0.076249264 0.056466434 0.06913113 -0.008667052
0.06094946 -0.06891129 -0.06374254 0.02753445 -0.074082464 -0.10714463 0.09058493 -0.0010570793
-0.05812621 0.021271063 0.08065155 0.05191635 -0.018283844 0.059609212 0.0051436406 -0.08163572
0.07915661 -0.031688187 0.042808924 -0.06372521 0.08377364 0.011044948 -0.009342689 0.0005245591
-0.048856746 0.07194507 0.0077649355 0.036387634 -0.05191548 0.0735125 -0.010548408 0.009161364
0.085525654 -0.06566117 -0.06601229 -0.06200321 0.055569045 0.036511198 -0.032677982 0.06971601
0.004574942 0.05843322 -0.05438961 0.06123434 0.031164411 -0.048560426 -0.07954716 0.06389878
0.004374234 0.050238132 0.03124475 0.0038083897 -0.065407805 0.02200554 0.042119123 0.038470987
0.041309398 0.04908088 -0.0065285335 -0.06501029 0.06518799 0.057847925 -0.05744391 0.0047361213
-0.05679518 -0.032963622 -0.021744464 -0.042248383 0.018373005 0.014391761 -0.09070919 0.035682578
0.06640852 0.055523 -0.022586176 0.05067275 0.08591185 0.008596029 0.009684564 0.08082769
0.04130667 0.08665828 -0.058705334 -0.074966855 0.0874464 -0.071540385 -0.048421178 0.020942485
-0.02161201 -0.035503678 -0.07473604 -0.0508429 -0.06662728 -0.015908698 -0.061530516 0.007617509
-0.010691021 0.019231899 0.018004835 0.02905813 -0.015081234 -0.053679414 0.016402058 -0.05135028
0.08298332 0.021179853 0.01263636 -0.051842775 0.034429934 0.0414038 0.091490835 0.07075667
-0.028081832 -0.03635485 0.051922448 0.033964578 0.023672663 0.02413614 0.08487542 -0.055252906
-0.03588477 -0.06192324 -0.01686082 0.028139243 0.07199687 0.018277839 0.03752987 0.0635935
-0.08066818 -0.050504647 0.059419572 0.037822627 -0.06061079 0.02550118 0.09106233 -0.08082996
0.09592507 0.0640606 0.0680871 0.06180035 -0.025368543 0.10177423 -0.007017683 0.04151509
0.008869706 -0.061305504 0.0918097 0.054063946 0.08990658 0.03317029 -0.069718644 -0.072099514
0.010274227 -0.01679284 -0.046744894 -0.034513563 0.0051208967 0.0372132 0.058740396 -0.05081702
0.042091027 0.0035845304 0.032894973 0.038846675 0.02658945 -0.085120395 -0.03890135 0.1018202
0.022307398 0.090710014 0.03328482 -0.013581563 -0.0033111118 0.060341958 0.035885315 -0.020777848
0.07641971 -0.053517748 0.045538962 -0.03518624 -0.035591956 -0.029296964 0.07209214 0.07971891
00000000: d1d1 d53c b76d 37bd 845f db3c fac2 4b3d
00000010: 39a0 6a3c 621e 2e3d 42e4 673d 3ada ae3c
00000020: ebba 0dbc 6483 b9bc 491a 12bd 7e08 a43d
00000030: 99d6 09bd dc50 8bbd 4886 d93c ec9d 3dbc
00000040: ed99 6f3d b403 0fbd dc9e e5bb e628 1ebd
00000050: fdb2 0dba 212c 9abb 5edd 973d ffdc 993c
00000060: d3d7 3dbd 88bf 773c 7978 0abc 2f37 583d
00000070: 8227 4ebd dc1b 7d3d c357 7d3d c59b d53d
00000080: beab 3e3d a3b2 933d 18bf 4b3b 4332 aa3c
00000090: 9352 a13a 0f32 803d 0f47 df3c fa6b b9bc
000000a0: 247a 5e3c 4b3b b3bb 0be6 97bc 055e 83bd
000000b0: ef4f 04bd b031 31bc d8e8 bd3d c552 d0bc
000000c0: 6d3f a8bd b4a8 fb3c 5ada 33bd 9799 493d
000000d0: d131 2fbd 7462 55bd 87b3 e83c 1bd4 6f3d
000000e0: ea1e 793d a179 973d b0b3 9b3d 3dee 5b3a
000000f0: 4204 613d 6930 4e3d 6fb7 e53c 01f2 c53c
00000100: 6379 c5bc b659 1a3c a122 c1bc 081f 843c
00000110: 9328 9c3d 5949 673d 9f94 8d3d 4000 0ebc
00000120: 24a6 793d 5d21 8dbd 738b 82bd ed8f e13c
00000130: 8cb8 97bd a56e dbbd 9784 b93d b28d 8aba
00000140: c015 6ebd a740 ae3c a42c a53d 3da6 543d
00000150: 00c8 95bc ca28 743d fc8b a83b a130 a7bd
00000160: dc1c a23d 79cb 01bd 6958 2f3d 5d82 82bd
00000170: 8491 ab3d dff5 343c 1412 19bc 9182 093a
00000180: 031e 48bd f057 933d 0071 fe3b 330b 153d
00000190: 54a5 54bd b98d 963d 3bd3 2cbc 8c19 163c
000001a0: 1328 af3d 5d79 86bd 7431 87bd 14f7 7dbd
000001b0: 5e9c 633d c48c 153d 59d9 05bd 44c7 8e3d
000001c0: 65e9 953b ac57 6f3d a4c7 5ebd dcd0 7a3d
000001d0: 824c ff3c 4ce7 46bd 9fe9 a2bd 5ddd 823d
000001e0: bc55 8f3b 80c6 4d3d fdf4 ff3c 2d96 793b
000001f0: 87f4 85bd f644 b43c 1a85 2c3d c193 1d3d
00000200: 0b34 293d 0809 493d 4fed d5bb 1d24 85bd
00000210: 4881 853d f2f1 6c3d 4e4a 6bbd 7731 9b3b
00000220: 10a2 68bd dd04 07bd 7221 b2bc a40c 2dbd
00000230: fc82 963c 6ccb 6b3c bdc5 b9bd e527 123d
00000240: 3101 883d 166c 633d a506 b9bc 3b8e 4f3d
00000250: 8df2 af3d 5cd6 0c3c 01ac 1e3c fd88 a53d
00000260: 2f31 293d e579 b13d 0175 70bd 3988 99bd
00000270: 1917 b33d c483 92bd 4955 46bd 938f ab3c
00000280: ac0b b1bc 4e6c 11bd 350f 99bd a540 50bd
00000290: e273 88bd f552 82bc 6c07 7cbd 4c9c f93b
000002a0: 6429 2fbc 378c 9d3c e07e 933c 510b ee3c
000002b0: 4817 77bc f2de 5bbd 9c5d 863c ac54 52bd
000002c0: 29f3 a93d 5f81 ad3c bc08 4f3c 1759 54bd
000002d0: 6706 0d3d 0897 293d 8c5f bb3d dfe8 903d
000002e0: df0b e6bc d3e8 14bd a2ac 543d 711e 0b3d
000002f0: 2ced c13c 27b9 c53c 2ad3 ad3d df50 62bd
00000300: e9fb 12bd 39a3 7dbd b41f 8abc 4584 e63c
00000310: 1873 933d 68bb 953c ecb8 193d 4f3d 823d
00000320: 5c35 a5bd f6dd 4ebd f061 733d e6eb 1a3d
00000330: 0543 78bd dae7 d03c e37e ba3d 2e8a a5bd
00000340: 5d74 c43d 3432 833d 4071 8b3d 5d22 7d3d
00000350: b1d1 cfbc 026f d03d 97f4 e5bb ba0b 2a3d
00000360: 3e52 113c 7b1b 7bbd b906 bc3d 2872 5d3d
00000370: f120 b83d 92dd 073d a6c8 8ebd e9a8 93bd
00000380: 3b55 283c 2391 89bc 9377 3fbd 185e 0dbd
00000390: 32cd a73b de6c 183d c599 703d 8225 50bd
000003a0: a467 2c3d 71ea 6a3b e1bc 063d b11d 1f3d
000003b0: 1ed2 d93c 9a53 aebd 0657 1fbd 1c87 d03d
000003c0: 01be b63c 2cc6 b93d aa55 083d 3485 5ebc
000003d0: 3dff 58bb 2129 773d 7bfc 123d 4e36 aabc
000003e0: f081 9c3d 6d35 5bbd 1087 3a3d 721f 10bd
000003f0: dfc8 11bd 3000 f0bc 0ba5 933d ab43 a33d

rent_branch.0.bias f4 [64]
-0.011303839 -0.033144616 -0.097750455 0.07564951 0.07783665 0.042493038 0.09304083 -0.029577805
-0.07155686 -0.094009645 -0.06724929 -0.08205752 0.039734174 -0.008972633 0.045281414 -0.08925614
-0.028985118 0.050456177 -0.07275384 0.046454802 -0.034602456 0.05849007 0.09379997 -0.0036368107
-0.016530072 0.021311285 0.046779163 -0.05455096 0.04583487 -0.009700126 0.036985133 0.051740587
-0.057598025 0.041466676 -0.05084372 0.029434603 0.07089264 -0.032047056 0.1057181 -0.038656767
-0.0423259 -0.0131722 0.07201461 -0.072575346 -0.07114731 0.019965056 0.024740376 -0.041285884
-0.016270135 0.016390253 -0.078614116 -0.006569656 -0.090109624 0.008804189 -0.08311547 0.014686427
0.06896008 -0.09776402 0.007197357 0.05652591 -0.00032598007 0.04670734 -0.06470442 -0.054418687
00000000: bd33 39bc a6c2 07bd 6431 c8bd 21ee 9a3d
00000010: d268 9f3d 2e0d 2e3d 318c be3d 274d f2bc
00000020: 678c 92bd 2188 c0bd ffb9 89bd c60d a8bd
00000030: 4dc0 223d f301 13bc 0179 393d eccb b6bd
00000040: 3372 edbc 23ab 4e3d f7ff 94bd 6447 3e3d
00000050: 4ebb 0dbd 4993 6f3d 331a c03d 8f57 6ebb
00000060: 136a 87bc 0195 ae3c 829b 3f3d d470 5fbd
00000070: 58bd 3b3d 47ed 1ebc b97d 173d f0ed 533d
00000080: e8eb 6bbd f6d8 293d 8141 50bd d620 f13c
00000090: 2930 913d c643 03bd bb82 d83d 8f56 1ebd
000000a0: ec5d 2dbd 36d0 57bc 657c 933d 62a2 94bd
000000b0: aeb5 91bd c28d a33c 54ac ca3c 631b 29bd
000000c0: f248 85bc da44 863c 7000 a1bd 4546 d7bb
000000d0: 658b b8bd 723f 103c 7238 aabd 579f 703c
000000e0: f13a 8d3d 8138 c8bd ced7 eb3b b687 673d
000000f0: 4ee8 aab9 3250 3f3d c083 84bd 21e6 5ebd

rent_branch.1.weight f4 [64]
0.99273515 0.9922989 0.9757131 0.9823387 0.99761 0.98548794 0.99632573 0.9895423
1.000627 0.9808808 0.9981048 0.993291 0.9966338 0.9893115 1.0019196 0.9885294
0.99356997 0.98862684 0.9731506 1.0012157 0.9831483 0.9950065 0.9865046 0.9875968
1.0013953 0.99268764 0.9956092 0.99473447 0.98999584 0.98147506 0.9835338 0.9860849
0.9962311 0.98882484 1.0219531 0.98394483 0.99358714 0.98441255 1.000417 1.0228127
0.99137175 0.9852472 0.992344 0.9726406 0.9902481 0.9877814 0.9848389 0.97867125
0.97138464 0.98668396 0.9894097 0.95892555 0.9737229 0.96591777 0.9953388 1.002769
0.9944237 0.9860595 0.99593157 0.9818259 0.99325114 0.9986108 1.0477915 0.990051
00000000: e423 7e3f 4d07 7e3f 55c8 793f 8d7a 7b3f
00000010: 5e63 7f3f f048 7c3f 340f 7f3f a552 7d3f
00000020: 8c14 803f 011b 7b3f cc83 7f3f 5248 7e3f
00000030: 6523 7f3f 8543 7d3f e73e 803f 4310 7d3f
00000040: 9a5a 7e3f a616 7d3f 6620 793f d627 803f
00000050: 9baf 7b3f bfb8 7e3f 918b 7c3f 25d3 7c3f
00000060: b92d 803f c720 7e3f 3fe0 7e3f eba6 7e3f
00000070: 5e70 7d3f f341 7b3f dfc8 7b3f 0f70 7c3f
00000080: 0009 7f3f a023 7d3f 5ccf 823f cfe3 7b3f
00000090: ba5b 7e3f 7602 7c3f aa0d 803f 87eb 823f
000000a0: 8aca 7d3f 2939 7c3f 420a 7e3f f9fe 783f
000000b0: e680 7d3f 3edf 7c3f 671e 7c3f 338a 7a3f
000000c0: aaac 783f 5297 7c3f f449 7d3f 257c 753f
000000d0: e745 793f 6346 773f 86ce 7e3f bc5a 803f
000000e0: 8d92 7e3f 656e 7c3f 5ff5 7e3f f158 7b3f
000000f0: b545 7e3f f5a4 7f3f 081e 863f fb73 7d3f
